Classifier/dndf_weights.pth (torch, 230342 bytes, 12 tensors)

feature_extractor.conv.0.weight f4 [16, 1, 3, 3]
0	0x3e567d6f	0.20946287
1	0x3e56f000	0.2098999
2	0xbe3479e0	-0.17624617
3	0x3e48679b	0.19570772
4	0xbd5d040c	-0.053958938
5	0x3d779e43	0.060453665
6	0xbdf92e2f	-0.12167012
7	0xbdb66cbe	-0.0890746
8	0xbeaa7688	-0.33293557
9	0x3de063e4	0.109565526
10	0x3e0bd957	0.13657127
11	0x3d9a89aa	0.075457886
12	0x3ea55226	0.32289237
13	0x3e86105e	0.26184362
14	0x3e9f4847	0.3110983
15	0x3e02e817	0.12783848
16	0x3de26baa	0.110556915
17	0xbd5c04fd	-0.053715695
18	0x3d056b7a	0.0325732
19	0xbebb7b9a	-0.36617738
20	0x3e8436c7	0.25823042
21	0xbe7358bb	-0.23764317
22	0x3d9cd045	0.07656912
23	0x3dfd8104	0.123781234
24	0x3de8439a	0.11341019
25	0xbe9ff58b	-0.31242022
26	0xbdfca89c	-0.12336847
27	0x3e84a20d	0.25904885
28	0x3e9ee133	0.31031188
29	0xba15b58c	-0.00057109515
30	0xbe94a47d	-0.29031745
31	0xbbce4db6	-0.006295885
32	0x3e9bf91c	0.30463493
33	0xbe8e20bb	-0.27759346
34	0x3ead858d	0.33890954
35	0xbe332340	-0.17493916
36	0x3eafc12c	0.34327066
37	0xbe119b72	-0.14219454
38	0x3d221395	0.039569456
39	0x3e9e0f07	0.3087084
40	0xbcd7eb41	-0.026357295
41	0x3da9baf0	0.082876086
42	0x3e468e1f	0.19390152
43	0xbe60f07e	-0.2196674
44	0xbe5429fd	-0.20719142
45	0xbe028ce6	-0.12749061
46	0x3ebc2db9	0.36753634
47	0x3e5dbf09	0.21654905
48	0xbe3eeb28	-0.18644392
49	0xbe52cbf2	-0.20585611
50	0x3eb19e04	0.3469087
51	0x3dbf1c89	0.093316145
52	0xbcd261cd	-0.0256814
53	0xbe9e5ae5	-0.30928722
54	0xbe5caa88	-0.21549428
55	0x3dc57ac3	0.096425556
56	0x3e808044	0.2509786
57	0x3de2710b	0.110567175
58	0x3e1bb490	0.15205598
59	0x3da5c6cc	0.08094558
60	0x3d06e30f	0.032931384
61	0x3e8798fa	0.264839
62	0xbe1d3194	-0.15350944
63	0xbe15b6b3	-0.14620475
64	0x3e75b57c	0.23995012
65	0xbea7eafd	-0.3279647
66	0xbe2855e1	-0.1643901
67	0xbe2bb198	-0.16766965
68	0xbdcc8b31	-0.09987486
69	0xbe28340a	-0.16426101
70	0xbe041ce4	-0.12901646
71	0x3e65d987	0.22446261
72	0x3d9714b1	0.073769934
73	0x3e1368b5	0.14395411
74	0x3e907b5c	0.28219116
75	0xbcea00ea	-0.028564889
76	0x3eb9958b	0.36246905
77	0x3e9fb1f8	0.31190467
78	0x3eabd5ea	0.3356164
79	0xbdf02ac3	-0.11726906
80	0x3e406222	0.18787435
81	0x3e15e6a2	0.1463876
82	0xbdb22f53	-0.08700433
83	0xbd553e34	-0.052061275
84	0xbe7a0ba4	-0.24418503
85	0x3e9a6f2c	0.30162942
86	0xbd37a109	-0.04483131
87	0xbe801a87	-0.2502024
88	0xbea06d22	-0.31333262
89	0xbe68f021	-0.22747852
90	0x3d75055d	0.059819568
91	0x3ebb925a	0.36635095
92	0x3d9ed694	0.07755771
93	0xbe8f3690	-0.27971315
94	0x3b91bcfa	0.0044475766
95	0x3e6127d9	0.21987857
96	0x3df46c3c	0.119347066
97	0xbea29364	-0.31753075
98	0x3eb36fff	0.35046384
99	0xbe51f858	-0.20504892
100	0x3e460071	0.19336106
101	0xbe091c50	-0.13389707
102	0xbe3e02d5	-0.18555768
103	0x3e544113	0.20727949
104	0x3e0d53f8	0.13801563
105	0x3d4fc56a	0.050725378
106	0xbc1d85ad	-0.00961439
107	0xbe25e303	-0.1619988
108	0x3d9698ef	0.073533885
109	0xbe97c976	-0.2964589
110	0x3dc20ffa	0.094757035
111	0xbe6e68bd	-0.23282142
112	0x3e66cda9	0.2253939
113	0x3daa3b76	0.083121225
114	0x3e8ac832	0.27105862
115	0x3d1c030f	0.038088854
116	0x3ebe7406	0.37197894
117	0x3e9a0bf1	0.30087236
118	0xbdd47d1c	-0.10375425
119	0xbe7f9683	-0.2495976
120	0x3ddc16d0	0.10746539
121	0xbe80738c	-0.25088155
122	0x3e517c66	0.2045761
123	0xbe769d62	-0.24083474
124	0xbe22484c	-0.15847892
125	0xbd22bf38	-0.03973314
126	0xbe906537	-0.2820222
127	0x3e45006c	0.19238442
128	0xbe4a7da2	-0.19774488
129	0xbe8702e7	-0.26369402
130	0x3e1872d8	0.1488756
131	0xbe1e04fa	-0.15431586
132	0x3e4357da	0.19076481
133	0x3e170dbe	0.14751336
134	0xbdaa1d85	-0.08306412
135	0xbe9ee735	-0.31035772
136	0xbd0f3dae	-0.03497093
137	0x3e13ced6	0.1443437
138	0x3e500125	0.20312937
139	0xbe4eb15e	-0.20184848
140	0x3ea0debb	0.3141993
141	0x3e962851	0.29327634
142	0xbe8e5627	-0.27800104
143	0x3d34925b	0.044084888

feature_extractor.conv.0.bias f4 [16]
0	0x3e5aab35	0.21354373
1	0x3e287759	0.16451778
2	0xbe451b49	-0.1924869
3	0xbe34cb24	-0.17655617
4	0xbdb48250	-0.08813918
5	0xbe20704e	-0.15667841
6	0xbdc704bd	-0.09717701
7	0xbe84e8c8	-0.25958848
8	0xbe6ee000	-0.23327637
9	0xbe898222	-0.26857096
10	0xbe541c65	-0.20713957
11	0x3e85b7e8	0.26116872
12	0xbcdd15c7	-0.026987923
13	0xbe5a9563	-0.21346049
14	0xbe403d08	-0.18773282
15	0x3e4c26b4	0.19936639

feature_extractor.conv.3.weight f4 [32, 16, 3, 3]
0	0x3c56b190	0.013103858
1	0xbd3c4706	-0.04596617
2	0x3d843ee0	0.06457305
3	0xbb5f4e2c	-0.0034073694
4	0xbdb20388	-0.0869208
5	0xbdafa7fe	-0.08576964
6	0xbdcc5cfe	-0.09978674
7	0xbd304b80	-0.043040752
8	0xb79757d4	-1.80415e-05
9	0xbd807aa6	-0.06273393
10	0xbc638e53	-0.013888913
11	0xbdb0e51d	-0.0863745
12	0xbd99cd54	-0.07509866
13	0x3d07c63e	0.033148043
14	0x3d49732a	0.049182095
15	0x39209e63	0.00015317793
16	0x3d21104b	0.03932218
17	0xbcd5a571	-0.026079865
18	0x3d9bcd42	0.07607509
19	0xbd908de6	-0.07058315
20	0x3db3615b	0.087588035
21	0x3cac9e39	0.02107154
22	0xbd5aae3e	-0.053388827
23	0x3de043ad	0.10950408
24	0x3d8080a4	0.06274536
25	0x3c4fcfcd	0.012683821
26	0x3d94613a	0.07245107
27	0x3e16aa17	0.14713322
28	0x3e165366	0.14680251
29	0x3d3c35ff	0.045949932
30	0x3cd1da6c	0.025616847
31	0x3ddaf296	0.10690801
32	0xbcf4f34f	-0.029901175
33	0x3d5f9c16	0.054592215
34	0x3d85013f	0.06494378
35	0x3d7a3c51	0.06109268
36	0xbd28230b	-0.041049045
37	0x3da42472	0.08014764
38	0x3dc2602f	0.09491002
39	0xbd787b74	-0.06066461
40	0x3d9db654	0.07700792
41	0x3d37dc9c	0.044888124
42	0x3e04daa9	0.12974037
43	0x3dfb60fd	0.122743584
44	0x3d79c529	0.060979042
45	0x3dd07cc6	0.10180049
46	0x3b017ec6	0.00197594
47	0x3c383da8	0.011245169
48	0x3cd24748	0.025668755
49	0x3db14f98	0.086577594
50	0xbca19f3e	-0.019729253
51	0x3e088f1f	0.13335846
52	0x3e025a79	0.12729825
53	0x3d999184	0.07498458
54	0xbc480ce0	-0.012210101
55	0x3d90e14c	0.07074222
56	0x3d9e699a	0.07734986
57	0x3cf7050e	0.030153777
58	0x3d806bcb	0.0627056
59	0x3bab3abb	0.005225507
60	0x3e202227	0.15638028
61	0x3dbca2fc	0.09210774
62	0xbbb06560	-0.0053831786
63	0x3d2d0481	0.042240623
64	0x3c0fa356	0.00876697
65	0xbd6185a8	-0.055059105
66	0x3df45e91	0.119320996
67	0x3ca21193	0.01978377
68	0xbc120fda	-0.008914912
69	0x3d93c23b	0.07214781
70	0x3d30006a	0.042969145
71	0xbc36f5b5	-0.01116698
72	0x3d735254	0.059404686
73	0xbd1f96e1	-0.03896225
74	0xb85ca3d2	-5.2604657e-05
75	0x3d124da6	0.035718583
76	0x3db6d274	0.089268595
77	0x3cca71ca	0.024712462
78	0x3dcd075f	0.100111715
79	0x3e000c6a	0.12504736
80	0x3e031a91	0.12803103
81	0xbce02743	-0.027362471
82	0x3cf6186d	0.030040944
83	0x3d5d0aaf	0.053965267
84	0x3d8d8629	0.06910355
85	0xbd0d3f61	-0.03448427
86	0x3d4fafc3	0.05070473
87	0x3d98f159	0.074679084
88	0x3d156d5b	0.036481243
89	0x3d4d408f	0.050110396
90	0x3e17a868	0.14810336
91	0x3d4ac09d	0.049500097
92	0xbd51ff1e	-0.05126869
93	0x3db952b1	0.09048975
94	0x3e108245	0.14112194
95	0x3d914786	0.0709372
96	0x3dff5bff	0.12468719
97	0x3dec0869	0.115250416
98	0x3bd9d849	0.0066480977
99	0xbd9030f2	-0.070405856
100	0x3c8da169	0.01728888
101	0xbc8f96c7	-0.01752795
102	0xbcfdb869	-0.030971723
103	0xbbf0c095	-0.0073471763
104	0x3d76df94	0.060271814
105	0x3d9c9f22	0.0764754
106	0xbd647ce5	-0.05578317
107	0x3d27bae9	0.040949736
108	0xbce89d20	-0.028395236
109	0x3db7dec7	0.08978038
110	0x3beaaaba	0.0071614655
111	0x3dd206bb	0.1025519
112	0x3da5100b	0.080597006
113	0x3c92cf5a	0.017921139
114	0x3c6c8dc4	0.014438096
115	0x3d11707a	0.035507657
116	0x3dfd0f7b	0.12356468
117	0x3d519023	0.05116285
118	0x3d300e24	0.042982236
119	0xbd1e6427	-0.03866973
120	0xbd0f8e79	-0.035047982
121	0x3c6a6e46	0.014308518
122	0xbc65e7e1	-0.014032335
123	0x3dcbb36e	0.09946333
124	0xbd6a3768	-0.057181746
125	0xbda2bfd5	-0.07946745
126	0xbda8416a	-0.08215602
127	0x3ccdb343	0.025109893
128	0x3d9665ea	0.07343657
129	0x3dd3e88c	0.10347089
130	0x3d3320a7	0.04373231
131	0x3d9d6c95	0.07686726
132	0x3bed6b97	0.0072454917
133	0x3db459d6	0.08806197
134	0x3d7b9f25	0.06143107
135	0xbd1b3082	-0.037888058
136	0xbd978615	-0.07398621
137	0x3ced3f20	0.028960764
138	0x3da40cd6	0.08010261
139	0x3c321d35	0.010871221
140	0x3d4d0202	0.050050743
141	0x3dac5c22	0.084160104
142	0xbce54306	-0.02798606
143	0x3d76b147	0.06022766
144	0x3cd4de31	0.025984855
145	0xbd5b8b4a	-0.053599633
146	0x3c9f9302	0.019479278
147	0x3d67fab3	0.05663557
148	0x3dfccdc2	0.12343933
149	0x3c0fd8a6	0.00877968
150	0x3b6ac1d9	0.0035821109
151	0x3c4b552c	0.012410443
152	0xbd295968	-0.04134503
153	0xbc1c162e	-0.009526772
154	0xbd67f98e	-0.05663448
155	0xbd0b772c	-0.034049198
156	0xbbf3fcd4	-0.007445911
157	0x3db4e26b	0.08832248
158	0x3b6a5d8e	0.003576133
159	0xbda9e4ea	-0.08295615
160	0xbd26c9b6	-0.04071971
161	0xbda2f768	-0.07957345
162	0xbe025cb2	-0.12730673
163	0xbd3a69c0	-0.045511007
164	0x3d682510	0.05667597
165	0xbdace322	-0.0844176
166	0xbe115e0a	-0.1419603
167	0x3cc3e1b6	0.023911338
168	0xbcfb38b7	-0.030666692
169	0xbd76ff2c	-0.060301945
170	0xbd2c8975	-0.042123277
171	0x3c01019b	0.007873918
172	0xbd07f9b5	-0.033197124
173	0xbe0a666c	-0.13515633
174	0x3c8861ce	0.0166482
175	0x3b684245	0.003543989
176	0xbcb51af2	-0.022107575
177	0xbd436ee0	-0.04771316
178	0x3dd538d9	0.104112335
179	0xbdc14881	-0.09437657
180	0xbe0c4249	-0.13697161
181	0xbdf34438	-0.11878246
182	0xbc536a27	-0.012903727
183	0x3d2eee7f	0.042707916
184	0x3d46bcaf	0.048519786
185	0x3ca0131c	0.019540362
186	0x3d584b32	0.052806087
187	0xbd810635	-0.06300012
188	0x3d77e671	0.0605225
189	0xbd813ca6	-0.06310396
190	0xbca9d574	-0.020731665
191	0x3c00249f	0.007821231
192	0x3d866f9f	0.06564259
193	0xbd9f1159	-0.07766981
194	0xbe05968a	-0.13045707
195	0x3d81b72e	0.06333767
196	0xbdb5d23d	-0.088779904
197	0x3dafecb9	0.08590073
198	0xbc99f09e	-0.018791493
199	0xbd9ff08f	-0.07809555
200	0xbc489836	-0.012243321
201	0x3ba0a2d2	0.004902222
202	0x3c21881d	0.009859112
203	0x3d8244b7	0.063607626
204	0xbdfd7881	-0.123765
205	0xba3698bc	-0.0006965508
206	0xbc423e94	-0.01185574
207	0x3c1462f6	0.009056797
208	0x3bd45f47	0.0064810845
209	0xbb309159	-0.0026942103
210	0xbd833222	-0.064060465
211	0x3cd9564a	0.026530404
212	0xbd3c9704	-0.046042457
213	0xbd16d1bc	-0.036821112
214	0x3d916574	0.07099429
215	0x3c9b5c88	0.01896502
216	0x3cc8d58d	0.024515891
217	0xbdd03692	-0.101666585
218	0xbcaa2d1f	-0.020773469
219	0xbd0f0630	-0.03491801
220	0xbdbbf625	-0.09177808
221	0xbdacadb8	-0.08431572
222	0xbe1cf9d9	-0.15329684
223	0xbe0d7a17	-0.13816105
224	0xbdd41923	-0.10356357
225	0xbcb61e13	-0.022231137
226	0xbd042620	-0.03226292
227	0x3d01ca7a	0.031687237
228	0xbdab8808	-0.08375555
229	0xbdd4b63d	-0.10386322
230	0x3d81d787	0.06339937
231	0x3d7d13f8	0.06178662
232	0x3dd52f13	0.10409369
233	0x3dbd100e	0.09231578
234	0x3d24ad77	0.04020449
235	0xbca07c29	-0.019590454
236	0xbbfb1063	-0.0076618656
237	0xbcfd4e34	-0.03092108
238	0xbd602f2b	-0.054732483
239	0xbc828bfe	-0.015935894
240	0xbc1273a5	-0.008938705
241	0xbcfd62d9	-0.030930923
242	0xbdb9322b	-0.09042772
243	0x3d84068d	0.06446562
244	0x3c6f2e8e	0.014598502
245	0x3ca996f2	0.02070186
246	0x3cb7012a	0.022339422
247	0xbce1463c	-0.02749931
248	0xbca7a756	-0.020465534
249	0x3d20a373	0.039218377
250	0x36c58125	5.886092e-06
251	0xbd71f0d5	-0.059067566
252	0xbdeab52d	-0.11460338
253	0x3d6ea8d2	0.05826647
254	0xbd0b8640	-0.034063578
255	0xbde05c47	-0.109551005

feature_extractor.conv.3.bias f4 [32]
0	0xbcdced00	-0.02696848
1	0x3d19abdb	0.03751741
2	0xbd6c91cb	-0.057756227
3	0x3ddcbf29	0.107786484
4	0x3c7b23fe	0.015328405
5	0x3deed65c	0.116619796
6	0xbc1aba58	-0.009443842
7	0x3d1f3d69	0.038876925
8	0xbd834ecf	-0.06411516
9	0x3dcad8c5	0.09904627
10	0x3d2e64af	0.042576488
11	0xbb743e3c	-0.003726854
12	0x3c938da4	0.018011875
13	0x3df84048	0.12121636
14	0xbc9cf461	-0.019159498
15	0x3d7c3a59	0.061579082
16	0x3dd5951f	0.10428833
17	0x3d9f00fc	0.0776386
18	0xbbcd38c5	-0.006262871
19	0xbd8443a5	-0.06458215
20	0x3acce2d3	0.0015631564
21	0x3dd5dbfb	0.104423486
22	0x3d758eec	0.059950754
23	0x3d2111ba	0.039323546
24	0x3c9436d7	0.018092556
25	0xbd89ac9a	-0.06722374
26	0x3db23277	0.08701032
27	0x3b57fc62	0.0032956828
28	0x3c00057e	0.007813809
29	0xbce78f42	-0.028266553
30	0xbd8e0e44	-0.06936315
31	0xbd9d750c	-0.076883405

feature_extractor.fc.weight f4 [64, 800]
0	0xbce01679	-0.027354466
1	0x3c65f0cb	0.01403446
2	0x3d538cea	0.051648058
3	0x3d94e6a8	0.07270557
4	0xbc238ce5	-0.009982322
5	0x3cdbe79d	0.02684384
6	0xbbbc6481	-0.0057492857
7	0x3d1b0bcd	0.03785305
8	0x3d72fa88	0.059320956
9	0xbce45789	-0.027873771
10	0x3cb4c44e	0.022066262
11	0xbcc3fa3c	-0.023923032
12	0x3c85c37d	0.016328568
13	0xbd17185f	-0.036888476
14	0xbd28dda4	-0.041226998
15	0x3d195b88	0.037440807
16	0x3d6cbbb1	0.057796184
17	0x3d8a96bc	0.067670316
18	0x3c9b9fcc	0.018997096
19	0x3c4c92f1	0.012486205
20	0xbd2424c4	-0.040074125
21	0x3cd70713	0.02624849
22	0x3dafc40c	0.08582315
23	0x3d285b18	0.0411025
24	0xbbabc017	-0.0052414048
25	0xbba35d62	-0.0049854973
26	0xbcd2c2a3	-0.025727576
27	0xbda1016a	-0.07861598
28	0xbd5581cc	-0.052125737
29	0xbb66566e	-0.003514673
30	0x3b8ae290	0.004238434
31	0xbd1728b1	-0.03690404
32	0xbd0046dd	-0.03131758
33	0xbd7d3a32	-0.061823077
34	0x3d869862	0.065720335
35	0x3cad8052	0.021179352
36	0x3d01263d	0.031530607
37	0xbc804a24	-0.015660353
38	0xbc020eb1	-0.007938073
39	0x3d5be96f	0.053689416
40	0x3d44a4ba	0.048008658
41	0x3ca7fdc9	0.020506756
42	0xbbfc4ece	-0.007699824
43	0x3bd3ff08	0.006469611
44	0x3d3f6959	0.046731327
45	0x3d81794c	0.06321964
46	0x3d23e769	0.04001561
47	0xbd6de290	-0.058077395
48	0xbd43c55d	-0.047795642
49	0x3b24dd2d	0.0025156245
50	0xbadd7169	-0.0016894761
51	0x3d3c2649	0.04593495
52	0x3cc2dd98	0.023787305
53	0x3d49b291	0.04924256
54	0x3c48aaf7	0.012247792
55	0x3d7ae16d	0.06125014
56	0xbd1f1cd2	-0.038845845
57	0x3cc5c8db	0.024143627
58	0x3d686753	0.056739163
59	0xba2e145f	-0.0006640609
60	0x3d564578	0.052312344
61	0xbc4e79f1	-0.012602315
62	0x3d7563a2	0.05990947
63	0x3be60f3d	0.0070208595
64	0x3d72fcef	0.059323248
65	0x3d1daca4	0.03849472
66	0x3d05045b	0.032474857
67	0xbc1ed211	-0.009693638
68	0xbd084e11	-0.033277575
69	0xbd14fa7e	-0.0363717
70	0xbc2000ba	-0.009765798
71	0x3d9a9f8f	0.07549965
72	0x3d2ccea1	0.042189244
73	0x3d04b620	0.03240025
74	0xbd19b32b	-0.037524384
75	0xbd1f9b0d	-0.038966227
76	0xbd8a6aa9	-0.06758625
77	0xbd9c72b8	-0.07639068
78	0xbe183c68	-0.14866793
79	0xbc9efda6	-0.019408058
80	0x3ac923ae	0.0015345716
81	0xbaea90cc	-0.0017895936
82	0xbd819fc9	-0.06329305
83	0xbd8e068c	-0.069348425
84	0xbd1227ed	-0.035682607
85	0xbd65d3a7	-0.05611005
86	0x3d27eb1d	0.040995706
87	0xba5d92bd	-0.00084523467
88	0xbd76bd3c	-0.06023906
89	0xbbc77884	-0.0060873646
90	0xbc9e53ed	-0.019327128
91	0xbd330036	-0.043701373
92	0x3c8fad29	0.017538624
93	0xbbc220fa	-0.0059243413
94	0x3c9e6e94	0.019339837
95	0xbd4a7294	-0.049425676
96	0xbd42fad5	-0.047602493
97	0xbd6341c7	-0.055482652
98	0xbdefef75	-0.11715595
99	0xbb336a96	-0.0027376763
100	0x3d17383a	0.036918856
101	0xbb9b580c	-0.0047407206
102	0x3d64af79	0.055831406
103	0x3d074a23	0.033029687
104	0x3c5b12e6	0.013371205
105	0xbd301313	-0.04298694
106	0xbd296366	-0.04135456
107	0x3d52d64d	0.051473904
108	0x3d0171de	0.031602733
109	0x3d342858	0.043983787
110	0x3d1c52de	0.038164966
111	0xbd64bf81	-0.055846695
112	0x3be60d32	0.007020616
113	0x3d257d36	0.040402614
114	0x3d48327f	0.04887628
115	0x3d86212e	0.06549297
116	0xbcb76ae6	-0.02238984
117	0x3d237683	0.039907943
118	0x3a87f09f	0.0010371393
119	0xba7affa2	-0.00095748354
120	0x3ca9dd9b	0.020735553
121	0x3c993e99	0.018706607
122	0x3cac427f	0.021027802
123	0x3d0abbd5	0.033870537
124	0xbbcafecf	-0.0061949263
125	0xbd829512	-0.06376089
126	0xbc65c49e	-0.014023928
127	0xbe14b123	-0.14520697
128	0xbd886721	-0.06660295
129	0xbc5623a5	-0.013070022
130	0xbd258da4	-0.040418282
131	0xbce28596	-0.02765159
132	0xbcffd593	-0.03122977
133	0xbdb8cd65	-0.09023551
134	0xbb325d54	-0.0027216272
135	0xbd8a7640	-0.06760836
136	0x3bf80675	0.007569129
137	0xbd97175c	-0.07377502
138	0x3c7edff9	0.015556329
139	0x3d0957a5	0.03353085
140	0xbd11935e	-0.03554093
141	0xbd5e302f	-0.05424517
142	0xbd831f88	-0.064024985
143	0xbd162524	-0.036656514
144	0xbbb18467	-0.005417395
145	0x3cf1ce09	0.02951719
146	0xbcdddcfd	-0.027082914
147	0xbdbeea4e	-0.09322034
148	0xbdb73947	-0.08946472
149	0xbd0687ef	-0.03284448
150	0xbd258f1d	-0.040419687
151	0xbce785e2	-0.028262082
152	0xbdc60eb3	-0.096707724
153	0xbdb12421	-0.08649469
154	0xbc12efc2	-0.0089682955
155	0xbc46327b	-0.012096996
156	0x3b2adffc	0.0026073446
157	0xbd4ea6f7	-0.0504522
158	0xbda69091	-0.081330426
159	0xbc6a0b7a	-0.014284963
160	0xbd0b9abb	-0.03408311
161	0x3d082270	0.033235967
162	0xbcb52557	-0.022112532
163	0xbbbd157f	-0.005770385
164	0x3c9f4b81	0.019445183
165	0xbcbf44f9	-0.023348318
166	0xbcd3b7ea	-0.025844533
167	0xbd425ee3	-0.047453772
168	0xbbedf85c	-0.0072622728
169	0xbbe21fc6	-0.0069007603
170	0x3c0dd119	0.00865581
171	0xbd51caad	-0.051218677
172	0xbde0d7b0	-0.10978639
173	0xbd615278	-0.05501029
174	0xbd675dbe	-0.056485884
175	0xbd3df08e	-0.04637199
176	0xbd1a4367	-0.037661936
177	0xbd7e03b8	-0.062015265
178	0xbd84e3e4	-0.06488779
179	0xbc5b42da	-0.013382638
180	0xbd6707b0	-0.056403816
181	0x3cd00173	0.025391316
182	0xbc8b0faf	-0.016975252
183	0x3ccccee3	0.025000995
184	0x3aaa06a4	0.001297195
185	0xbd517a9e	-0.051142327
186	0xbc6a17a3	-0.014287862
187	0x3cdf4337	0.02725373
188	0x3bc2d1cd	0.0059454204
189	0xb99b8e6e	-0.00029670022
190	0xbd7f7b30	-0.06237334
191	0x3a204704	0.0006114098
192	0x3db880e6	0.090089604
193	0x3cf179fc	0.029477112
194	0x3d405b73	0.046962213
195	0x3d02bdba	0.03191922
196	0xbbafc751	-0.0053643365
197	0xbd007fe0	-0.03137195
198	0xbd6b2f4a	-0.057418145
199	0xbd4c5c32	-0.04989261
200	0xbd71294b	-0.05887727
201	0x3d2a2d3a	0.041547038
202	0x3c77ec09	0.015131959
203	0xbd15b673	-0.03655095
204	0xbbe8fc30	-0.007110141
205	0x3c09dead	0.008414906
206	0x3a8e229a	0.0010844052
207	0x3c1d57a0	0.009603411
208	0xbd86d06d	-0.06582723
209	0x3b26aeaa	0.0025433698
210	0x3d86e66a	0.06586917
211	0x3cb09e4d	0.021559859
212	0x3cbbba97	0.022916121
213	0xbdd1f680	-0.10252094
214	0x3c3ca5d2	0.011514144
215	0x3dab0be5	0.08351878
216	0x3b9dfb90	0.0048212484
217	0x3d6f65af	0.058446582
218	0x3db50e1d	0.088405825
219	0xb9db6932	-0.00041849312
220	0x3d59ae8f	0.053144988
221	0x3d0058b3	0.03133459
222	0xbc20a8fc	-0.009805914
223	0x3d44c4e5	0.048039336
224	0x3d40beb0	0.047056854
225	0xbd77ef90	-0.0605312
226	0xbcbfc625	-0.023409912
227	0xbd6e63b1	-0.058200542
228	0xbda6ecf6	-0.081506655
229	0xbd85ac60	-0.065270185
230	0x3cb7af1b	0.022422364
231	0xba1858da	-0.000581158
232	0xbd08e422	-0.03342069
233	0xbd906617	-0.07050722
234	0xbd78fb30	-0.060786426
235	0x3a8623a7	0.0010234014
236	0x3ba13818	0.004920017
237	0x3ada6cee	0.0016664544
238	0xbd92a87b	-0.07161041
239	0xb98061ab	-0.0002448683
240	0xbce0377c	-0.027370207
241	0x3c9c0faa	0.019050438
242	0x3c7d6bb7	0.015467576
243	0xbd27464a	-0.040838517
244	0xbb3f8a37	-0.002922667
245	0xbcc58b5e	-0.024114307
246	0x3c3b7095	0.011440416
247	0xbd9ceccc	-0.07662353
248	0xbd5a511c	-0.05330001
249	0xbc9bfab1	-0.019040437
250	0xbd144421	-0.036197785
251	0xbcb32b8e	-0.021871354
252	0xbc9b6c12	-0.01897243
253	0xbd2dde6a	-0.04244844
254	0x3c645341	0.013935865
255	0x3ce36bf5	0.027761439

feature_extractor.fc.bias f4 [64]
0	0xbd389708	-0.04506591
1	0x3d403edf	0.04693496
2	0xbcbb1b83	-0.022840267
3	0xbcff04b9	-0.031130182
4	0xbd898078	-0.067139566
5	0x3d2e4689	0.042547736
6	0x3dae6882	0.08516027
7	0x3cb4b89b	0.022060683
8	0x3ce60180	0.028076887
9	0x3d01ea2b	0.03171746
10	0x3ca54094	0.020172395
11	0x3d7f682b	0.0623552
12	0xbd33ac8c	-0.043865725
13	0xbcfd7958	-0.03094165
14	0xbd359252	-0.044328995
15	0xbd04ef46	-0.03245475
16	0xbd289d96	-0.04116591
17	0xbcff2cae	-0.031149235
18	0xbcfd76f0	-0.030940503
19	0xbd8143a2	-0.06311728
20	0xbd9030e6	-0.07040577
21	0xbd9e06cb	-0.077161394
22	0xbd37ebac	-0.04490249
23	0xbd067e17	-0.032835092
24	0x3af5140d	0.0018697992
25	0x3d03ee34	0.03220959
26	0xbd8a1e96	-0.06744115
27	0xbd713a17	-0.05889329
28	0xbc768dba	-0.015048439
29	0x3c05efad	0.008174819
30	0x3c57ebbf	0.013178765
31	0x3d84652c	0.064646095
32	0xbd88cef6	-0.066801
33	0xbd62b1e6	-0.05534544
34	0x3d8d084f	0.0688635
35	0x3d1664c5	0.036717195
36	0xbd1b2040	-0.037872553
37	0xbbdf5f6b	-0.0068167946
38	0x3bd87bf4	0.0066065732
39	0xbc919cfb	-0.01777505
40	0x3d27edff	0.040998455
41	0x3d8d58a4	0.069016725
42	0x3d4df625	0.05028357
43	0xbcad7142	-0.02117217
44	0xbd40be39	-0.04705641
45	0xbd33ad9e	-0.043866746
46	0xbc8cf785	-0.01720787
47	0x3d5bf769	0.053702746
48	0xbd051d80	-0.032498837
49	0xbd2ac95f	-0.04169595
50	0x3c625038	0.013813071
51	0x3d0d1fb2	0.034454055
52	0x3d1e9572	0.03871674
53	0xbac5387f	-0.0015046744
54	0x3ca50604	0.02014447
55	0x3d4006c0	0.046881437
56	0x3d6ef83a	0.058342196
57	0x3d94d30c	0.072668165
58	0xbca279ae	-0.019833412
59	0xbc609bca	-0.013709018
60	0xbd218116	-0.039429747
61	0xbd803c36	-0.06261484
62	0xbc37f813	-0.011228579
63	0x3b648f95	0.003487562

tree.node1.fc.weight f4 [1, 64]
0	0xbced1a3b	-0.028943172
1	0xbde7673d	-0.11298988
2	0xbd90a042	-0.07061817
3	0xbe1113bd	-0.14167686
4	0x3e109b87	0.14121829
5	0x3c4aff55	0.012389977
6	0xbe487c00	-0.19578552
7	0x3db7983e	0.08964585
8	0x3d470cb9	0.048596118
9	0xbe032afe	-0.12809369
10	0xbe5b21b7	-0.2139958
11	0xbdd9b12c	-0.10629496
12	0x3e0b5061	0.13604881
13	0x3b5b72b8	0.0033485126
14	0x3ddfcaf5	0.10927383
15	0x3e31891c	0.1733746
16	0x3cb247bf	0.021762727
17	0xbdbdcbfe	-0.09267424
18	0xbd440793	-0.047858786
19	0x3e672a89	0.2257482
20	0x3e8259fa	0.25459272
21	0x3e71c463	0.23610072
22	0x3d1ebec0	0.038756132
23	0x3d34ced8	0.044142574
24	0x3d423527	0.04741397
25	0xbe26257d	-0.16225238
26	0x3e0a9916	0.1353496
27	0xbe083167	-0.13300095
28	0xbd74be67	-0.059751894
29	0x3dd6b576	0.1048383
30	0x3ceb62d3	0.028733646
31	0xbd9829aa	-0.07429822
32	0x3d61f0c9	0.05516127
33	0x3c406318	0.011742376
34	0xbcb52e31	-0.022116752
35	0xbda969e3	-0.082721494
36	0x3dddac29	0.108238526
37	0xbe02fda1	-0.12792064
38	0xbd8319bc	-0.06401393
39	0xbe0cec52	-0.13762024
40	0x3d8f3cf1	0.069940455
41	0xbe617e73	-0.22020893
42	0xbdeca0c3	-0.115541
43	0xbce9aded	-0.028525317
44	0x3e10005c	0.14062637
45	0x3d2504a2	0.04028762
46	0xbd3d33e9	-0.046192084
47	0x3de512be	0.111852154
48	0x3cdeaae3	0.027181095
49	0xbba5f6a0	-0.0050648004
50	0x3deb6be1	0.11495186
51	0xbdc2a24c	-0.09503612
52	0xbe3adc7e	-0.18248174
53	0xbd1f3fe1	-0.03887928
54	0x3e0a9240	0.13532352
55	0xbe7b85af	-0.24562715
56	0xbd3ff44b	-0.046863835
57	0xbe1dfc24	-0.15428215
58	0x3e0418dc	0.12900108
59	0x3e137153	0.14398699
60	0xbdd2bf3d	-0.10290382
61	0x3d99576a	0.07487376
62	0xbde41192	-0.11136164
63	0xbd674570	-0.056462705

tree.node2.fc.weight f4 [1, 64]
0	0xbe8bf745	-0.2733709
1	0x3ddd9f34	0.10821381
2	0xbe108bdc	-0.14115852
3	0xbd9a848d	-0.07544813
4	0xbd9e25f4	-0.07722083
5	0x3e6abc7f	0.22923468
6	0x3d424639	0.04743025
7	0x3e316fd7	0.1732782
8	0x3e1aabba	0.15104571
9	0x3de73d84	0.1129103
10	0xbd33e7e4	-0.04392232
11	0x3e22965e	0.15877673
12	0xbd19bc8e	-0.037533335
13	0xbe5593b8	-0.20857131
14	0xbe3b5db8	-0.1829747
15	0x3ce8db73	0.028424954
16	0xbd7642fc	-0.060122475
17	0xbe2c5e53	-0.16832857
18	0xbe385424	-0.18000847
19	0xbc7fa392	-0.015602963
20	0xbccb89ca	-0.024845976
21	0x3b11ff29	0.0022277331
22	0xbe3f178f	-0.1866133
23	0xbe37cd1f	-0.17949341
24	0x3e3a702c	0.18206853
25	0x3d155a64	0.036463156
26	0xbe29e872	-0.16592577
27	0xbe0425e6	-0.12905082
28	0xbe5671fb	-0.20941918
29	0x3d8d09e3	0.06886651
30	0x3e4b4bfb	0.19853203
31	0x3dd51f20	0.10406327
32	0xbde96da1	-0.11397863
33	0xbe4009dc	-0.18753761
34	0x3e2b8ab9	0.16752137
35	0x3df78d92	0.12087549
36	0xbdc5b228	-0.09653121
37	0xbe3c0c2d	-0.1836402
38	0x3dfb2b09	0.12264068
39	0xbdd5ba40	-0.10435915
40	0x3e65a1ca	0.22424999
41	0x3d3c7868	0.046013266
42	0x3d6e0c69	0.058117304
43	0xbe853835	-0.26019445
44	0xbe1b17c0	-0.15145779
45	0xbd69de64	-0.057096854
46	0xbe56af4a	-0.20965305
47	0x3de95db6	0.11394827
48	0xbe32b5c2	-0.17452148
49	0xbe3f722f	-0.18695901
50	0x3dc6e99b	0.097125255
51	0x3d05d074	0.0326695
52	0x3d8dcfa3	0.06924369
53	0xbe3a4267	-0.18189393
54	0x3e2e82a6	0.17042026
55	0x3c63fd69	0.013915398
56	0x3dd400eb	0.103517376
57	0x3e3b11f9	0.18268575
58	0xbdfb58c5	-0.12272791
59	0x3ddad753	0.10685601
60	0xbdb8ecfb	-0.090295754
61	0xbdb18786	-0.08668427
62	0xbe46e218	-0.19422185
63	0xbddff94b	-0.10936221

tree.leaf1.probs f4 [2]
0	0x3e50ea7d	0.2040195
1	0x3f4bc568	0.79598093

tree.leaf2.probs f4 [2]
0	0x3f66a5e9	0.9009691
1	0x3dcad07f	0.09903049

tree.leaf3.probs f4 [2]
0	0x3f0313e1	0.5120221
1	0x3ef9d861	0.48797897

tree.leaf4.probs f4 [2]
0	0x3f08a77d	0.53380567
1	0x3eeeb093	0.4661909
