Classifier/dndf_weights.pth (torch, 230342 bytes, 12 tensors)

feature_extractor.conv.0.weight f4 [16, 1, 3, 3]
00000000: 32ca 203e 68e8 6ebe b453 3cbe 08d5 5abe
00000010: 413f 883e b700 683e 8224 bbbd 3456 ad3e
00000020: 86d0 1bbd 2bcc 903e 01f1 463e 93d0 d93c
00000030: fd14 593d 2f39 0d3e 8a1b b43e 5d57 19be
00000040: e274 b93e d6f1 dd3d f0b2 92be eb4f 89be
00000050: a606 bd3d d586 70be 50fd a83d 9f83 bebd
00000060: 7489 083e a8fb 2abe d3b5 2cbe 49c5 0ebe
00000070: baa6 42be 43fb 5bbe d4b6 ea3d 1ccd 75be
00000080: b973 ae3c db21 4bbe 0960 1a3e ea8e b43e
00000090: c91e e43d d0c9 8d3d 84e0 fcbc 972f c53d
000000a0: db91 1dbe cd99 51be 2028 283e 0963 0cbe
000000b0: de7d 1f3e 0367 acbe 497e 933e ddcf 603e
000000c0: 2d41 55bd 5e1e eb3c 191f a1bd 01ae 83be
000000d0: 9009 aa3e c693 9b3e a885 093e e707 a0be
000000e0: 1997 88bd edf4 a53e 53db b63d 5f99 613e
000000f0: 58d2 193d 7a7c 50be 0f1c fbbd e935 f9bc
00000100: a524 80be 3a40 713e b28f 8fbe bc33 fdbd
00000110: 9c77 55be bd82 3bbe e33d 3c3e 7f20 0ebc
00000120: e0b3 9bbe cb4b b43d b2f1 05bd 574b b43c
00000130: 4e3d 3cbe c8ab a3be 1bb6 acbe 0e8f 43be
00000140: 6425 7d3d abaa 85be 0fa8 413d ce0e 88be
00000150: 2f41 1ebe c681 6abe 9ded 78be 8fbd 03be
00000160: 8455 babc 256e 9b3c 3827 7cbe b99b 64be
00000170: ba03 56bd aa94 ae3e dda6 613e 8217 3ebd
00000180: 6c30 1a3e 7364 813e 1241 6f3e 22db b9bd
00000190: ffaf 57be 52c8 de3d bc5b 62be 5a40 5c3e
000001a0: b30e 8d3c df3c aebe 18ea b93e 06ad b93d
000001b0: 8ed9 91be 64bf 663e c990 94be 8a4a 343e
000001c0: 5d84 85be e421 f4bc d0d7 97be 1445 27be
000001d0: 92bd a1bc 4383 08be 815d 143d fd74 b23e
000001e0: 79ef 5a3e 9baf b23e 222b 9a3e d909 b9bd
000001f0: f4c9 71bd 88ac 03be e7ba 30bd 9308 8ebe
00000200: 9f2b d03d 5290 26be 169a 143e 9b12 683e
00000210: 1d13 9b3d b652 5f3e 7bb4 65bd 6c73 593e
00000220: a64e ae3b 78a9 1e3d 393f 09bd 1ea4 26be
00000230: d979 b33d be52 a03e 1a0a bd3e ffd0 943e
0.15702131 -0.23330843 -0.18391305 -0.21370327 0.2661076 0.22656523 -0.09137823 0.3385483
-0.03804066 0.28280768 0.19427873 0.026588714 0.05299853 0.13791345 0.3517726 -0.14974733
0.36221987 0.10837142 -0.28652143 -0.26818785 0.09229784 -0.23488934 0.082514405 -0.093024485
0.13333684 -0.16697562 -0.16866235 -0.13942446 -0.19008914 -0.21482567 0.11460653 -0.24004024
0.021295415 -0.19837134 0.15075697 0.35265285 0.11138684 0.06923258 -0.030868776 0.09628218
-0.1538767 -0.20468827 0.16421556 -0.13709654 0.15575358 -0.33672342 0.28807285 0.21954294
-0.05206411 0.028701004 -0.078672595 -0.25718692 0.3321042 0.3038618 0.13429892 -0.3125603
-0.066694446 0.32413426 0.089285515 0.22031163 0.037554115 -0.20359984 -0.12261211 -0.030421214
-0.25027958 0.23559657 -0.28039318 -0.12363383 -0.20846409 -0.18311591 0.18382983 -0.00867474
-0.3041067 0.08803519 -0.0327012 0.022008581 -0.18382761 -0.31966996 -0.33732685 -0.1909754
0.061803237 -0.26106772 0.047279414 -0.26573795 -0.15454553 -0.22901067 -0.24309392 -0.1286528
-0.022745855 0.01897342 -0.24624336 -0.22325028 -0.052249648 0.34097797 0.2203631 -0.046409138
0.15057534 0.2527195 0.23364666 -0.090749994 -0.21063231 0.10878052 -0.22105306 0.21508923
0.017218923 -0.34030816 0.36311412 0.09066205 -0.28486294 0.22533947 -0.29016712 0.1760656
-0.26077548 -0.029801317 -0.2965684 -0.16334945 -0.019743714 -0.13331322 0.036221985 0.3485488
0.21380414 0.348996 0.30111033 -0.090350814 -0.059030488 -0.12858784 -0.043146994 -0.27740917
0.1016457 -0.16265991 0.14511904 0.22663347 0.07572005 0.21808895 -0.056080323 0.21235436
0.005319434 0.038735837 -0.03350756 -0.16273543 0.08763475 0.31313127 0.3692177 0.290657

feature_extractor.conv.0.bias f4 [16]
00000000: c238 2ebd 46b1 70be 926b a03e 4943 09bd
00000010: 6e48 203e f783 90be 28ed a13d 6187 26be
00000020: ba82 bd3c eeb1 a43d bd0f 23be edbe 15be
00000030: f045 3cbe 0bb5 9d3d 717d bd3d adf5 54be
-0.042534597 -0.23505124 0.3133207 -0.033511434 0.1565263 -0.2822568 0.07906562 -0.1626258
0.023133624 0.0804175 -0.15923972 -0.14623614 -0.18386054 0.07700547 0.09252442 -0.20796843

feature_extractor.conv.3.weight f4 [32, 16, 3, 3]
00000000: eef6 f73b ba73 42bb a6c3 4e3c 9eb3 693d
00000010: 227b 7f3d f0b6 84bc c011 01bc 98d9 78bc
00000020: 2cfe 3e3d 6935 463d f4c0 a4bd fe22 483d
00000030: e750 183d 5117 91bd 89bf 9abd ae26 e43c
00000040: c02e 7bbd 2db6 ccbc 484b 50bc 2035 3f3c
00000050: 5398 99bd 10ce 91bc 11c1 203d deb2 fbbc
00000060: 93cc 013d bbfd a1bd 6b9b 17bd 6ec2 0e3d
00000070: 305a 42bd b40f db3c 4045 55bd 482e 073c
00000080: 4516 8f3d 71ec 4abd a3cd 4e3d dc33 453d
00000090: 4bde b7bc 4d43 cabc 4c67 a1bd fa04 8b3d
000000a0: 186c 6b3d b2ef 67bd afee 6bbd d31a 79bd
000000b0: b2f5 24bd 340b 57bd 2dc3 c23c 1a53 3d3d
000000c0: 938c 83bd 66f7 1fbd 2339 95bc c8f9 6d3c
000000d0: 660a 4d3d 7d96 13bd a023 b93c 351e 10bc
000000e0: b307 a6bd f46c 84bd fce9 4c3d dc54 89bd
000000f0: cba8 803d 5480 f63c 5616 73bd 00cc 6fbd
00000100: 3262 92bd 79c5 9b3d 203f 7b3c 12f2 843d
00000110: 4615 5c3d ee2f 773d d066 f9bc faf5 a63d
00000120: ac5e f13c 307b 8b3b 46c4 83bd d0b5 bdbc
00000130: 6ab3 7abd 2503 c83c 68ad d53c e3ee 1a3d
00000140: ea98 7cbd a031 45bd c0e2 fd3a 9331 3abd
00000150: 80b3 043c f757 a9bd 64c3 a7bd 8bb4 f0bc
00000160: 5c04 c73c 3277 a63d e02b 7c3d faed 47bd
00000170: 130a 6b3d 141b 373d 9bae a3bd e08a 963c
00000180: 4807 3fbd bc46 bdbc 1e95 46bd a969 973d
00000190: 68ab 52bc c7be a0bd 322e 373d 2a6d 7b3d
000001a0: 6b81 80bd 9f1f 94bd 004a 35ba 6380 9fbc
000001b0: f3a7 61bd 6c1c b4bc 5ab4 6f3d 5a29 793d
000001c0: 2bd0 1abd 80bf 7ebd e35d 24bd 9341 53bd
000001d0: b97e 8abd 55ab 213d 129e 363d 9667 49bd
000001e0: 1fae f3bc 76df 663d 65c5 243d 7397 1ebc
000001f0: a462 ab3c d632 61bd 5c6f b83c a11c 88bd
00000200: 1eb3 4e3c efc8 9c3c 05f8 97bd 0f87 54bd
00000210: 6bdc 93bd de99 7fbd 24a3 8ebd 2952 2a3c
00000220: 8229 9b3d ad27 da3c 495a c23b 4044 99bb
00000230: 86f7 b2bc 3b00 08bd 2a2a 2d3d b278 8ebc
00000240: 2347 e4bb 564a 07bd 228f 3d3d cdb4 103c
00000250: 9f01 063c dde1 893d ba15 e5bd 9dc3 a8bd
00000260: 53dc 75bd 47fd 663d 6ca9 4a3c 80a7 d93c
00000270: 1684 d2bd 75b7 5bbd e576 90bd 5de1 473c
00000280: e624 e5bd f8fa 95bb 13b2 c9bc 4b06 6d3d
00000290: 393d 9b3d 1c32 ab3c 2811 383b 4eae 8b3d
000002a0: 2236 a6bc ef73 b33d 83bb 4f3d 568c 883d
000002b0: f3b9 273d 56ff 213d 8e46 f4ba 1d85 3c3d
000002c0: 826f 953d 8ddd dabd 712a a2bc 4870 87bd
000002d0: 2d53 0fbd 5273 303d 98bd a93d d2e8 c83d
000002e0: 9532 d53d 6438 60bd 33cb 7bbc 1613 06bd
000002f0: f396 23bd 1661 8dbd 721f 0abd c7fe b0bd
00000300: 87e2 bdbd 6f76 23be 0b77 d6bd ee2a aebc
00000310: 7e8c 1abd 77c4 103c aba5 ba3b e3a8 a83d
00000320: 2b34 363d 47af 4a3d 2e77 f73c 8a6f 5dbd
00000330: 2ba4 923d 6e82 ad3d 457c 13bd ad4a 53bd
00000340: 77b4 a4bc dc3f 533d 69dc 193d f6e0 82bc
00000350: 0095 40bd 03ea 843d 045e e6bc c3ae 7cbd
00000360: 780c 8c3c 1c44 6f3d 8df3 343d ff9e b1bd
00000370: 3e91 793d c26d 1d3c 8971 39bd a753 db3c
00000380: 0ae9 ee3c b963 dd3b b55a 43bd 2cd6 603d
00000390: 3d59 bdbd b42b edbb 4c53 563c adaf bd3c
000003a0: bd4c 53bd e70a 303d 9e0f 9fbd 800d d6bc
000003b0: 2cbd 46bc 52cf e9bd dc39 9cbc 2965 ed3c
000003c0: 890d c33c 06d9 82bd 4252 02be 6f4a 943d
000003d0: 8564 adbd 3095 153d 3a97 c1bd ff52 ab3c
000003e0: bb63 6e3d 5683 67bc 33a3 d4bd 3d87 77bc
000003f0: 5315 94bd d537 9dbc a2a8 b63d a02b 35bc
0.007567278 -0.002967103 0.012619888 0.057056062 0.062373288 -0.016200513 -0.007877767 -0.015188597
0.046629116 0.04839078 -0.080446154 0.048861496 0.03718653 -0.070845254 -0.07556064 0.027850475
-0.06132388 -0.024989212 -0.012713261 0.011670381 -0.07499757 -0.017798454 0.039246622 -0.030724939
0.031689238 -0.07909723 -0.037013453 0.03485339 -0.04744929 0.026740886 -0.052067995 0.00825078
0.069866695 -0.049541894 0.05048908 0.04814516 -0.022444865 -0.024690295 -0.078810304 0.067880586
0.057476133 -0.056625076 -0.057600673 -0.060816597 -0.040273376 -0.05250092 0.023774708 0.04622183
-0.06423297 -0.039054297 -0.018215721 0.0145248845 0.050058745 -0.03603219 0.022599995 -0.008796264
-0.08106937 -0.06466094 0.050027832 -0.06705639 0.06282195 0.030090488 -0.059347473 -0.05854416
-0.071476355 0.07606024 0.015334874 0.06491484 0.053731225 0.060348444 -0.030444533 0.08152385
0.029464088 0.0042566285 -0.064339206 -0.023157984 -0.06120626 0.024415562 0.026083663 0.037825476
-0.061669268 -0.04814303 0.0019369945 -0.045457434 0.008099437 -0.08268731 -0.08191565 -0.029382965
0.02429407 0.081282035 0.06156528 -0.048810937 0.057382654 0.044703558 -0.07992288 0.018376768
-0.046637803 -0.023105018 -0.048482053 0.073932 -0.012858249 -0.07848888 0.04472179 0.061383404
-0.062746845 -0.07232594 -0.0006915629 -0.0194704 -0.05509181 -0.021986209 0.058521606 0.06083045
-0.03779618 -0.062194347 -0.0401286 -0.05157621 -0.06762452 0.039470036 0.04458434 -0.049171053
-0.029746113 0.056365453 0.040227313 -0.009679663 0.020921059 -0.05498012 0.022514038 -0.066460855
0.012615947 0.019138781 -0.07420353 -0.051886614 -0.07219776 -0.0624026 -0.0696471 0.010395565
0.07576276 0.026630247 0.005931173 -0.0046773255 -0.021846544 -0.033203345 0.04227654 -0.017391536
-0.006966488 -0.033029877 0.04627908 0.008832169 0.008179097 0.06732533 -0.11185785 -0.08240435
-0.06002457 0.056393888 0.012369495 0.026569128 -0.102791 -0.053641755 -0.07053927 0.012199727
-0.111886784 -0.004577037 -0.024621045 0.05786733 0.07580037 0.020897917 0.0028086398 0.06820355
-0.020289484 0.08762347 0.050715934 0.06667392 0.04094882 0.039550148 -0.001863675 0.046025384
0.07296659 -0.10686789 -0.019795628 -0.06613213 -0.034991432 0.043078728 0.08288115 0.09810032
0.104100384 -0.05474128 -0.015368271 -0.032733046 -0.03993888 -0.06903283 -0.033721395 -0.08642345
-0.09271722 -0.15963148 -0.104719244 -0.021260705 -0.03773164 0.008835903 0.0056960187 0.082353376
0.044483345 0.049483564 0.030208196 -0.05406145 0.07160219 0.08472143 -0.036007185 -0.05158489
-0.020105584 0.051574573 0.037563715 -0.01597641 -0.047017097 0.06489947 -0.028121002 -0.061690103
0.01709579 0.058414564 0.04417758 -0.08672904 0.06092953 0.009608688 -0.04527429 0.026773287
0.029163856 0.0067562726 -0.047693927 0.05489175 -0.092455365 -0.007237876 0.013081383 0.023155058
-0.051586855 0.042979147 -0.077666506 -0.026129484 -0.012130063 -0.11416496 -0.019070558 0.028978901
0.023810165 -0.0638905 -0.12726691 0.072407596 -0.08466438 0.03651923 -0.09452672 0.020913599
0.05820058 -0.014130434 -0.1038269 -0.015107927 -0.0723063 -0.019191662 0.08918883 -0.011057764

feature_extractor.conv.3.bias f4 [32]
00000000: 1b9d 7cbd 449c 9f3d 27e6 2b3d e031 7f3d
00000010: 7616 36bd cd11 ca3d d43c c83d 0791 a23d
00000020: ee46 b53d 2d9b 52bd 443a d53d 3e51 be3c
00000030: df7c 33bd b3e8 783d 0a36 5e3d ceb4 933d
00000040: a019 6cbd 0923 a53d 29a3 d73d eaa2 01bd
00000050: 6fef dcbc 1e74 7b3c d8b0 a7bd 44f9 8bbd
00000060: c9d0 a4bd 981f b73d 7e9d d83d ccd9 7dbd
00000070: d1e2 833d d3df 113c e370 873c 7477 703d
-0.061673265 0.07793477 0.041967537 0.062303424 -0.044455014 0.098666765 0.09777227 0.07937818
0.088514194 -0.05141752 0.10411504 0.023232099 -0.04382026 0.060768794 0.054250754 0.0721222
-0.057641625 0.08063323 0.10529167 -0.031649508 -0.02696964 0.015347509 -0.08188027 -0.06834653
-0.08047635 0.08941573 0.10576914 -0.061975285 0.06439746 0.0089034615 0.01653332 0.05870767

feature_extractor.fc.weight f4 [64, 800]
00000000: 7264 a53c f1bf 743c 7088 5b3c dcc5 0abd
00000010: b424 703c 2015 c33c a776 fabc 1fda 05bd
00000020: 50d3 16bb 051c 033d 1cb2 05bc fcd2 673c
00000030: 329d c73c 42b9 9ebc 6369 a0bc fe06 ab3c
00000040: 0756 cfbc 1389 abbc 06c9 ff3c cc1e 723c
00000050: de6f ca3c e8da 5d3c 44f7 05bc 9e61 843c
00000060: 9afa 52bc 1e4b 08bb 9b90 1c3d b3bd fd3c
00000070: bd33 d03b caf8 38bc 59e1 b53b 2a8f 91bb
00000080: 5f17 ee3c 09c8 443c 89c9 ffbc d50f b3bc
00000090: 215e 2c3d abdb b63b 2931 88bc 31ff 3bbc
000000a0: 1031 043c 8bad 51bc 2a80 1f3d 1a6d e539
000000b0: cba9 8cbc c462 a0bc 72a8 833c 76f5 953d
000000c0: 56a8 d83c bf7b bd3b 88c1 903c ae9a 8b3c
000000d0: 92ce 023d bc95 613d ecad bb3c 1e5e 10bb
000000e0: 0685 273d 6748 fb3c bbac a23d b687 893c
000000f0: 9838 fe3c d298 0c3d 4505 a4bb 49dc c5bc
00000100: 8032 e83c a03e e1b9 8926 77bc c2e4 a1bc
00000110: 7c44 d93b 9a7b e23c 52ad f7bc 7774 873c
00000120: f5cb 0f3b b439 513d 953d f03c 0d4f 903c
00000130: 1bae 83bb f59d 803c e88f 8e3d bd8d 313d
00000140: 96df 413d 72d6 bb3c 12b9 6a3d 9431 2e3d
00000150: 97ae 863c 8b4a 8e3c 88a7 163d 948b 973c
00000160: da56 163d 808e d239 76fc 6f39 5a55 123d
00000170: e4db 27bc 1f4f 5b3c 06dc 5e3b 2cc5 9fbb
00000180: 8e72 833c 8201 533d 917e 6f3c 257d c837
00000190: 9654 a53b 6624 86bb 8807 9c3d 82ed 8d3b
000001a0: 2030 a13c b976 71bb ef31 4e3d 118a 433d
000001b0: 3064 913d aa5d a33c a456 0e3d b55e 8ebc
000001c0: f1ea 2f3c 92db b13c b386 9eb8 9609 9dbc
000001d0: de21 9f3c a5be 843c 55d9 823c 143a b0bb
000001e0: 7009 98bb bfc1 53ba 4540 873c ae7d e43b
000001f0: e8d1 51bc e75b ecbb 3f7a 2b3d eafe 8b3d
00000200: 15c0 a63d e40c 3b3d dc7e 023d 22ed e0ba
00000210: 24e3 573d e33e 1d3d 1293 e43c 4d94 ff3c
00000220: dc88 debc 752d ed3c ac8e 223d c50a eebb
00000230: 8b3b 6fbc 72f9 a83c 111c d83c a5bb 2d3d
00000240: 50ab 49bc 526b 573d 4035 71bc cfbf 4a3d
00000250: 42b8 193d 280f 923c cd83 173c 4b9f fa3c
00000260: c102 5d3d a7d9 9b3d b076 923c 6eb3 613c
00000270: c98b ab3c 0a9d 493c 0076 8d3d 6fe7 823c
00000280: b894 2c3c 2bb0 1bbc 9a10 d93c 82b4 7d3c
00000290: 7f3b 5dbc 3898 1d3c a670 e03c f046 383c
000002a0: 79ae fd3c 7315 ac3c bf8f 9cbc 843c 2a3c
000002b0: 5ca9 203d 7e10 8c3c c012 55bb 58ab 403d
000002c0: 11e6 493c d300 203d 782a 493d a78a 6b3c
000002d0: 1e18 27bc 1da9 793c 59d4 443d 79de cb3c
000002e0: 1a91 81ba 2f1d 15bd e6aa e83c e61b 2bbc
000002f0: 3156 8d3b 3dde 813c 710f 0fbd 38bb d7bc
00000300: dc9d ba3c cb06 d8bc 85ae a73c e521 e73c
00000310: 7d67 9c3c 8883 883d c654 4d3d 64a6 2c3d
00000320: 12ff 9e3c 5e39 603b 7f52 a63d da83 813d
00000330: be49 04bd c812 243d 6e71 283d b017 0a3c
00000340: 8405 4bba b5d1 27bb d02d 48bc 93d6 343d
00000350: af33 7bbc 4d29 02bc 2a6f 123c 9ffa a4bc
00000360: c4f1 4cbc 29d2 793d da1a ddbb 844b d0ba
00000370: e533 abbc 99cf 83bc c56c a13d 3f4c d13c
00000380: 3b34 5b3c 194d a43c 0326 bfbc fb1e 413c
00000390: 7851 353d ce83 b73c 671a 263d a0aa 043d
000003a0: 1044 6b3d dc8f 073d a540 f5bb 2e15 23bc
000003b0: cc7e 2e3c 7e49 75bc 7219 d53c aefd 82bd
000003c0: 86a7 c93b c352 2a3c 85c3 7dbc 2abc b13c
000003d0: 21a2 a43b 7f26 38bc e6d5 ebbc 6c63 9c3d
000003e0: 9be6 653d c340 2ebd 9d85 0c3c 696f 8cbc
000003f0: 9dd0 673c 39fe 8f3d af70 463d 126a 00bc
0.020189498 0.0149383405 0.013399228 -0.0338801 0.014657188 0.023813784 -0.030574156 -0.03267872
-0.0023014136 0.032009143 -0.00816014 0.014149424 0.024366949 -0.019375447 -0.019581502 0.020877358
-0.025309576 -0.020939386 0.031223785 0.01477785 0.024711546 0.013540961 -0.0081766285 0.016159829
-0.012877131 -0.0020796726 0.038223844 0.030974245 0.006353824 -0.011289785 0.005550545 -0.0044421153
0.029063879 0.012010583 -0.03122403 -0.021858135 0.042081956 0.0055803857 -0.016625004 -0.011474417
0.008068338 -0.0127977235 0.038940586 0.0004375957 -0.017170807 -0.019578345 0.016071532 0.073222086
0.026447456 0.005782574 0.017670408 0.01704153 0.031935282 0.05507444 0.02291008 -0.0022028754
0.040898345 0.030674173 0.07943102 0.016788345 0.031032845 0.03432543 -0.005005511 -0.024152892
0.028344393 -0.00042962003 -0.015084871 -0.0197624 0.0066304784 0.027646828 -0.030234013 0.016535027
0.0021941636 0.05108042 0.02932624 0.01761582 -0.0040185577 0.01570032 0.06961042 0.043348063
0.04733237 0.022929404 0.057305403 0.04252775 0.016440673 0.01736953 0.036780864 0.018499173
0.03670392 0.00040160492 0.00022886865 0.03572593 -0.010245297 0.013385563 0.0034005656 -0.0048757996
0.016045835 0.05151511 0.014617578 2.3900133e-05 0.005045484 -0.0040936945 0.07618624 0.0043312917
0.019676268 -0.0036844446 0.05034059 0.047739092 0.070991874 0.019942123 0.034750596 -0.017379144
0.010737167 0.021711145 -7.559117e-05 -0.01916961 0.019425329 0.016204188 0.015972773 -0.005378017
-0.004639797 -0.00080778816 0.016510138 0.00697299 -0.012806393 -0.007213104 0.04186463 0.068357304
0.081421055 0.04566659 0.031859264 -0.0017160515 0.052706853 0.03839005 0.02790216 0.031198645
-0.027164869 0.02895234 0.039686844 -0.0072644674 -0.0146015985 0.020626757 0.02638057 0.04241528
-0.0123089105 0.052592583 -0.014722168 0.04949933 0.037529238 0.017829493 0.009247732 0.030593535
0.053957704 0.07609873 0.01787886 0.0137756895 0.020940678 0.012305507 0.06907272 0.015979497
0.010533504 -0.009502451 0.026497174 0.015484931 -0.0135029545 0.009618811 0.027397465 0.011247382
0.030966984 0.021006322 -0.019111512 0.010390405 0.039224014 0.017097708 -0.0032512397 0.047038406
0.0123229185 0.039063286 0.049112767 0.014376319 -0.010198621 0.015238074 0.048054073 0.024886357
-0.0009885163 -0.036404785 0.028401803 -0.010443663 0.0043132533 0.015853042 -0.034926835 -0.02633439
0.022780351 -0.026370427 0.02046896 0.028214404 0.019092316 0.066657126 0.050129674 0.04215087
0.019408736 0.003421388 0.08121204 0.06323977 -0.03229689 0.040056974 0.0411238 0.008428499
-0.00077446573 -0.0025607173 -0.012217954 0.044149946 -0.015332147 -0.007944417 0.008937636 -0.020139037
-0.012508813 0.06099144 -0.0067475857 -0.0015891646 -0.020898769 -0.016090201 0.07882074 0.025549052
0.013379152 0.020056294 -0.023333555 0.0117871715 0.044267148 0.022401717 0.040552523 0.032389283
0.057437956 0.03309618 -0.007484513 -0.00995378 0.010650348 -0.014971135 0.02601311 -0.06396042
0.0061540036 0.0103957085 -0.01548851 0.021696169 0.00502421 -0.011239647 -0.028788518 0.07636151
0.056128126 -0.04254223 0.008576778 -0.017142968 0.014148858 0.07030911 0.048447307 -0.007837789

feature_extractor.fc.bias f4 [64]
00000000: d416 5c3d 8785 543c 9a61 7abc c14e febb
00000010: 820c 68bd 389a 6dbc 26c5 203d 7d7f 213d
00000020: 2072 d83b 0fe2 c8bc aa10 763c e46d 8bba
00000030: 0f9e bebc 4e25 253b 23f4 553c df01 02bd
00000040: d02b da3c eb72 a7ba 59de 223d dae9 ab3c
00000050: a151 98bc fc5a 29bd e7fe 48bc 56cb 72bc
00000060: 1ce9 51bd 30c5 013d e095 38bd 396b 143d
00000070: c1f3 ec3c a1c1 5dbc 695e b3bc ab72 72bc
00000080: be24 7c3c 1e89 543b 1bb3 693c f77c 1f3c
00000090: a0e3 703b 2c66 a7ba ddc3 6a3d 14ad 713d
000000a0: 3e25 83bc 6e22 19bd 4e06 aabc 85a1 24bd
000000b0: 0f5f 05bc db2e a63c 3655 80bd 330e f2ba
000000c0: 318d 6e3d 3542 8d3c cf56 5bbd 0c9f 26bd
000000d0: 0b05 81bc 15d9 4a3d 3977 003d 9ad2 813c
000000e0: 5bf5 f6bb 5545 823c b6a8 b73c 0655 743c
000000f0: 239b 68bd b29e 033d 4aef b0bc b1cc 67bc
0.053732708 0.0129712885 -0.015282059 -0.007760853 -0.056652553 -0.014502101 0.039250515 0.039428223
0.0066054016 -0.024521856 0.015018621 -0.0010637608 -0.023268728 0.0025199237 0.013058695 -0.031740066
0.02663222 -0.0012775337 0.03976283 0.020985533 -0.018593611 -0.041346535 -0.012267805 -0.014818987
-0.0512477 0.031682193 -0.045064807 0.036235068 0.028924825 -0.013534934 -0.021895604 -0.014797847
0.015389619 0.003243036 0.0142638935 0.009734384 0.0036756769 -0.0012771538 0.057315696 0.05900295
-0.01600897 -0.03738635 -0.02075496 -0.0401931 -0.0081403395 0.020286014 -0.06266253 -0.0018467366
0.05824012 0.017243484 -0.053549584 -0.040679023 -0.015749475 0.04952343 0.0313637 0.015847493
-0.007536573 0.0159022 0.022419315 0.014912849 -0.056788575 0.032133766 -0.021598477 -0.014147923

tree.node1.fc.weight f4 [1, 64]
00000000: 4e70 d5bd 3257 0ebe 9fb1 14be 9523 53be
00000010: b95a 1f3d 6fa3 053e 9e68 02be f101 0dbe
00000020: 0a60 2f3e 9e92 f93c f4ce c43d 4801 32be
00000030: e402 143e 618a aebc 37a4 0cbd 35f3 f73d
00000040: bd9f a73c c036 1d3e e4c1 8fbc 8aff b3bc
00000050: 5332 1e3e 0a68 1c3e f0d5 c73d 8422 cabd
00000060: d9a7 0d3e 8389 2b3b d08e 103e d4fa 81bc
00000070: 84cf 97bd 2eb1 043e 1370 193e c77e 343d
00000080: 88b9 42bc 62d9 aa3d 2deb 3e3e 8ed3 a1bc
00000090: cbf3 073c 1add 063e 5fe6 6dbd ff04 c0bd
000000a0: bbe9 993d cbae df3d 2082 82bd d218 e53d
000000b0: 84e4 22bd 7892 bebc 2f91 e83d 47dd 2cbe
000000c0: e740 0fbe 0aca f5bd 2de3 163e 91a6 e93d
000000d0: d9ed 6f3d 5eaa 0abe af82 65bd 06bd f6bd
000000e0: 76a4 843d 50ae e63d 7021 dbbd fb76 cf3d
000000f0: 156d cb3d 04b3 2fbe d9c7 91bc 6f21 d83d
-0.10421811 -0.1390045 -0.14520882 -0.20619042 0.03890488 0.13050626 -0.12735221 -0.13770272
0.1712648 0.03046542 0.09609786 -0.17383301 0.14454228 -0.021306219 -0.034336295 0.12106935
0.020461911 0.15352917 -0.017548509 -0.021972436 0.15448885 0.15274063 0.09757602 -0.098698646
0.1383356 0.0026174493 0.14116979 -0.015866674 -0.07412627 0.12958214 0.14984159 0.044066217
-0.011885054 0.08342244 0.186444 -0.019754197 0.008297871 0.13170281 -0.058081027 -0.09375953
0.07515284 0.10922011 -0.063724756 0.11186375 -0.03976871 -0.023263201 0.113558166 -0.16881286
-0.13989602 -0.120014265 0.14735098 0.11408723 0.05857644 -0.13541552 -0.056032833 -0.12047772
0.06476681 0.11263716 -0.10699737 0.101301156 0.09932915 -0.17158133 -0.01779549 0.10553252

tree.node2.fc.weight f4 [1, 64]
00000000: 0e72 913d 4c48 2e3d 57e0 bcbd 42ec a9bd
00000010: cc71 2ebd d850 54bd 579d b1bd bf47 d53c
00000020: c6c8 1d3d c9a3 77bc 7f5d b23d 5904 c2bd
00000030: ccf6 12bd 0541 c8bd 4f9f 04be 07dd 253d
00000040: 0ae5 333e ba88 46bd 0f0f e83d e524 efbd
00000050: 8b66 9ebd d72f a73d cced d5bd 5bdf afbd
00000060: 2a8a c53b d347 fd3d 3460 d63d 7516 e83d
00000070: c741 f53c f666 db3d 93b3 69bd cb83 e53c
00000080: c0e3 b6bd c4f3 b03d c3ad a73d b8ba 303d
00000090: 05c8 af3d 935f 163d f9c2 d33d b24f a13d
000000a0: 49ea 5abd 7052 25bd 1888 17bd 28d0 7a3b
000000b0: c0ff 1ebe 88d5 723d 8b40 22bd 497c be3d
000000c0: af8f 0bbd d786 ea3d 1baa b2bd b746 df3d
000000d0: 1556 063e 3291 a63d 8b68 a23d d908 b33d
000000e0: fbf2 193e 3831 673d f1df 863d 7ab8 873d
000000f0: 7ea2 cebd 7282 28bd b729 95bd f91d f93d
0.07101832 0.042549416 -0.09222477 -0.08297016 -0.042588994 -0.05183491 -0.08672588 0.026035188
0.03852155 -0.015114733 0.08709239 -0.094734855 -0.035879895 -0.097780265 -0.12951396 0.04049399
0.1756784 -0.048470236 0.11330997 -0.11676959 -0.07734402 0.081634216 -0.10445747 -0.085875235
0.0060284333 0.12367215 0.10467568 0.11332408 0.029938592 0.107129976 -0.05705602 0.028016945
-0.089301586 0.086402446 0.08187439 0.04314682 0.085830726 0.03671224 0.103399225 0.07876529
-0.053446088 -0.04036182 -0.036995023 0.0038271043 -0.15527248 0.05928567 -0.039612334 0.09301049
-0.034072574 0.114515 -0.08723851 0.1090216 0.13118775 0.081331626 0.07930096 0.08741922
0.15034096 0.056443423 0.06585682 0.06626983 -0.10089587 -0.041140027 -0.07283347 0.1216392

tree.leaf1.probs f4 [2]
00000000: 2684 053f a9f7 f43e
0.5215477 0.478452

tree.leaf2.probs f4 [2]
00000000: 27da 303f b34b 9e3e
0.69082874 0.3091713

tree.leaf3.probs f4 [2]
00000000: e2a1 ff3e 142f 003f
0.49928194 0.50071836

tree.leaf4.probs f4 [2]
00000000: cfcb bd3e 121a 213f
0.37069556 0.62930405
