Classifier/dndf_weights.pth (torch, 230342 bytes, 12 tensors)

feature_extractor.conv.0.weight f4 [16, 1, 3, 3]
00000000: 765c 27be 9b89 583e e3d9 8c3e e56c b63d
00000010: 7dd5 25be d911 1d3e ac7e 6e3e ede4 debd
00000020: e26d 8b3e 2df7 7c3d 76b1 9b3e 364e afbd
00000030: e9d7 8bbc bcda 6ebd edca 393e 1d72 b23e
00000040: 8bed 8e3e c464 093d 8a2c 523e 5bed 27be
00000050: 5e59 d4be c399 20be d92a 493e 8eb5 32be
00000060: 59ea 2cbe a34c 3b3e fe44 81be 46a0 aa3e
00000070: 124c f13e 2f69 3b3e 4a5b e13d e02d de3e
00000080: 919c 993d 10f1 a23e ee10 5e3d 3035 d43a
00000090: a148 1a3e 7f4a 9cbe 055e 9fbd c02e 05be
000000a0: cd21 97be 41ad 56bd 4a92 783e 491a d5bd
000000b0: 8ad1 e3bd a019 763d f848 e8bd 9b89 033e
000000c0: 5c06 0f3f 54c8 093f a498 b13e 67b0 073f
000000d0: 8d02 773e 9592 cd3e 158f 503e 97d6 813e
000000e0: ed9e ba3a 021a c83e 51c4 023d 8b8e db3e
000000f0: c86e 9e3c 918a dd3e 09b2 0abd f357 80be
00000100: d3b8 65be 94b2 93be 64ab d73e 5798 503e
00000110: 14d0 bf3d 5ca5 b63e 92fe 383e 1ebc 753e
00000120: 5b0d 263e 9cf7 95be 46b7 37be 9e73 93bd
00000130: a189 393e 9960 b3be d4cf d73c 98bb b83e
00000140: 438c e1bd 0fec 8b3e 8176 afbe 34d7 72be
00000150: 1d6b dbbd 221c 51be 4a37 7b3d a899 d1be
00000160: 28f2 b2be 26d5 fb3c 3774 21be 6cc2 1e3e
00000170: 01c4 dc3e 5334 c2be fd19 9e3e 41e5 6f3e
00000180: 003e e5be 4f7e dbbd 77d8 d9bc b80d c33e
00000190: a7d7 683e a8af 65be 903b 903e 3c89 973e
000001a0: dad9 b7bb 80b9 a63e 897e 38be 9826 453e
000001b0: c665 e9bd 6043 5c3c 6bb2 ac3d c3f9 833d
000001c0: 97f3 6e3c 2af0 d5be 4a12 823d ad29 733e
000001d0: 9f3b 433e 03d4 f2bd 2d3a debd 51d4 e83d
000001e0: ccef f43d 530d c73d 17ac 9e3e d1a1 8e3e
000001f0: f3aa 693e 7348 6d3e 00ca 2a3e 1ff3 8abe
00000200: d16b 1ebe 73ec 05bd 089e 5a3e f554 af3d
00000210: c3fa 8bbe b574 9c3d 64e0 d13e d2a5 873e
00000220: 47ee 8b3d ce92 e33e 5b38 b1bd dda4 b2be
00000230: a7cc 923e 495f 4dbe 1ab2 88be 424f 1dbe
-0.16343865 0.21146242 0.27509984 0.08907489 -0.1619472 0.1533884 0.23290509 -0.10883508
0.2723227 0.061759163 0.3040883 -0.085598394 -0.017070727 -0.05831407 0.18143816 0.34852687
0.27915606 0.033543363 0.20524803 -0.16399138 -0.41474432 -0.15683655 0.19645251 -0.1745207
-0.16886272 0.18290953 -0.2524795 0.33325404 0.4712835 0.18301843 0.1100374 0.43394375
0.07500566 0.3182454 0.054215364 0.0016190168 0.15066768 -0.30525586 -0.07781605 -0.13006115
-0.29517975 -0.05241132 0.24274555 -0.10405404 -0.11123951 0.06008303 -0.11342043 0.12845461
0.5586908 0.538213 0.34686768 0.53003544 0.24122067 0.40150896 0.20367081 0.25359032
0.0014238037 0.39082342 0.031925503 0.4288219 0.019339934 0.4326978 -0.033861194 -0.250671
-0.22433786 -0.28847182 0.42122948 0.20370613 0.0936586 0.35673034 0.18065861 0.23997542
0.16216032 -0.29290473 -0.17941007 -0.071997866 0.18118908 -0.35034636 0.026344217 0.36080623
-0.11013081 0.27328536 -0.342701 -0.23714906 -0.107137896 -0.20420888 0.061332025 -0.40937543
-0.34950376 0.030741286 -0.15766989 0.15503854 0.4311829 -0.37930545 0.30879202 0.23427297
-0.44773865 -0.10717451 -0.026592476 0.38096404 0.22738515 -0.22430289 0.28170443 0.2959689
-0.0056106867 0.325634 -0.1801702 0.19253004 -0.11396365 0.013443798 0.08432468 0.06444123
0.0145844435 -0.41784793 0.063511446 0.23746367 0.19065712 -0.11856844 -0.1085094 0.11368621
0.119598 0.09719338 0.3099067 0.2785783 0.22819118 0.23172168 0.1667862 -0.27138612
-0.15470816 -0.0326962 0.21349347 0.08561126 -0.27339754 0.076394476 0.4099151 0.26493698
0.06832557 0.4444794 -0.08653327 -0.34891406 0.28671762 -0.2005588 -0.2669838 -0.15362266

feature_extractor.conv.0.bias f4 [16]
00000000: 35a1 d7bd 4a9c d3bd f3ec a3be 37e5 e8bd
00000010: 0a31 5dbd d07f 6f3e a72b 663d 8aa8 783e
00000020: dde8 a4bd 06a2 fbbc 0b8b 92bd 8f5a 59be
00000030: f97b f13d a65d 13be a400 363e 1173 16bc
-0.10528795 -0.10332544 -0.32016715 -0.11371844 -0.054001845 0.233886 0.056193974 0.24283043
-0.08052228 -0.030716907 -0.071554266 -0.21225952 0.11791224 -0.14391193 0.17773682 -0.009182707

feature_extractor.conv.3.weight f4 [32, 16, 3, 3]
00000000: c3df 803d 06b0 cd3d 836b 2c3c 53a5 a8bd
00000010: 5a3a 0cbe 3759 2f3d b5ce dabd 8838 71bd
00000020: 2831 f0bc 0a8c d13d 9eec 6d3d f2b8 babd
00000030: 24b4 c3bd 602b f6bd 5f56 93bc 8ae0 c43d
00000040: 5e23 15be 0e20 b83d 7c49 d13d ea4f 203e
00000050: 4ec6 f63d 076a b63d d067 9a3d 2cd6 c23d
00000060: d11f 293e 54b9 803e 2193 c43d ec98 2a3d
00000070: fb1f 51bc f48b 90bd 75e4 04be 487a e5bd
00000080: dc1b ddbd dae8 9cbc 0335 c2bd c6f3 0f3d
00000090: f909 abbd a90e 1f3c 75b9 84bd 1cbf 19bd
000000a0: 59a9 b93c b8fa 0d3c cef2 0fbd a06c e53d
000000b0: 3188 32be 523e b83e a709 a83e 7e57 d13d
000000c0: ed83 983d d0c3 19bd 1459 793a a179 d8bd
000000d0: ca91 5fbe 25de c03c 3496 323e f43f 6c3e
000000e0: c5f8 283e 4d9e 99bc 9e92 cf3b 041e 693d
000000f0: debd f6bc 2607 9cbd 06ad 2dbd aada 96bd
00000100: 3710 f8bd a07a cb3c 4b83 04be 11ca 11be
00000110: cd53 08be 3e24 d8bc e8f9 2cbe d00d 9dba
00000120: fbd7 98bd a5b7 cb3c 1de8 c23d d9e5 30bd
00000130: e05d edbc 4449 8f3d ca4f b13c a460 8d3d
00000140: 4971 653c 041e 39bd d688 6ebc 30ca 0bbd
00000150: d605 b0bd 4f44 00bd 3c53 063d c257 2c3d
00000160: 46fb 5a3e f6af 243d 7628 cebe 7333 8fbe
00000170: e0e8 5abe 9e29 04be 2299 babd e614 23be
00000180: 8d1f b43d b05f 283d 5eca 1e3e 1aa8 9cbc
00000190: ba5b b83d 5896 8b3e 76fa 2a3d 1070 0fbe
000001a0: a5ee 77bd d533 2e3c 5b61 1dbe 5fec 10bd
000001b0: d5a4 5e3d 92a1 67be 9117 fcbd af40 903e
000001c0: 3aa1 c6bd 55ee 25bc 535b bb3d 6704 8cbe
000001d0: 7ae0 1ebd be07 673d 6b9e 073e 0a49 903b
000001e0: 01b5 7dbe d646 d73c 96d0 49be 03f9 10bd
000001f0: c674 ebbc 725d 5fbd 465d 15be cf7b d7bd
00000200: af5a 34bd b9bd 8abd dd5f fd3c 16eb ca3b
00000210: 8736 d7bd e98b ee3d 059d 8cbc 21c2 7dbe
00000220: 92f5 123d 2b4d 30bd 21e6 06be ab17 d0bd
00000230: 5fa2 8fbe cb1f 873e 7656 9d3d e153 a13d
00000240: 6d8f c8bc 3537 24be a06c 803d 6a9c dabd
00000250: 6b0e 1b3c c069 d43c d4be 4a3d f65d 85bd
00000260: 0ce0 09be 616b 60bd 0770 13bc 1ee8 50be
00000270: 0af1 3dbd 1947 e5bd 39d0 47be 9536 24be
00000280: 2824 23bd 167a 63be fd56 843d 6f7f 9cbe
00000290: 2f48 883d 5e0d 15bd 4806 3ebd ad81 2abe
000002a0: c596 fcbd 1948 963d 6cef cdbd d7a8 f4bb
000002b0: 0da4 8ebd ac96 1bbe 2a6d 1ebd b6ac d8bd
000002c0: 7b76 82be 67a0 4fbe d2df 73bc 4457 6cbe
000002d0: d892 c13d 9011 823c 52cb 7abe 3449 1fbd
000002e0: 1515 ba3c 5fac c0be a777 8cbd a00a 1b3c
000002f0: 3f3b 91bc 0cce 88bd 5a7e 31be d2a1 fe3d
00000300: 4aea 28bd 2278 223d 3c87 093e 5d55 09be
00000310: de77 343c 0c22 343d 1583 1dbe 2a3e dabd
00000320: ca45 0cbd 7666 4fbd 590b 17be fae4 063d
00000330: 102d 56be 2dd4 d7bc fb11 77bd 6621 58bd
00000340: 03db eabd c109 583d dd43 23bd b218 b439
00000350: 6760 c83c 4734 cf3d 3442 263e 90a0 0cbb
00000360: 6fb7 0c3e bfbf 1cbd 0ad3 f8bd 9f79 42bd
00000370: 96d5 4dbd 1709 32be 9c9b e73d 8341 c43d
00000380: 8784 65be 01a8 b03c 99f9 623c 6d84 90be
00000390: 2d14 b93d bfa7 a33d c93a 59be 1b67 efbd
000003a0: f681 f0bd 579d 03bd bff6 1c3d d2d5 863e
000003b0: 3c8e edbc 09f0 6e3e 3dec 543e 5e93 c83d
000003c0: 112d efbd 7d84 03be 11f8 e53d 6b69 60bc
000003d0: 6cf2 353d dab1 aa3c 92e4 cebd f322 01be
000003e0: d473 a7bd f4c2 4ebd 56d4 383d 91dd 3ebe
000003f0: 3c90 343e 2ccf a63d 7350 75bc 583a debb
0.06292679 0.100433394 0.01052368 -0.08234658 -0.13694134 0.04280969 -0.106839575 -0.058891803
-0.029320315 0.102317885 0.058086984 -0.09117307 -0.095558435 -0.12019992 -0.01798552 0.0961314
-0.14564273 0.08990489 0.10219094 0.15655485 0.12049542 0.08906942 0.07539332 0.09513506
0.16516043 0.25141394 0.09598375 0.041649744 -0.012763972 -0.07057944 -0.12977774 -0.11204964
-0.107963294 -0.019154001 -0.094827674 0.03514459 -0.083515115 0.009708085 -0.064806856 -0.03753577
0.022663759 0.008665733 -0.035143666 0.11202359 -0.17434765 0.35985047 0.32819864 0.10221766
0.07447038 -0.037540257 0.000951187 -0.10570074 -0.21832958 0.023543427 0.1744011 0.23071271
0.16501148 -0.018752242 0.006334617 0.05691339 -0.030119833 -0.07618551 -0.042401336 -0.073659256
-0.12112468 0.024838746 -0.1294071 -0.14237238 -0.13313217 -0.02638447 -0.16892207 -0.0011982266
-0.0746307 0.024867842 0.09516928 -0.04318795 -0.028975427 0.06996396 0.021644492 0.06903198
0.01400406 -0.04519464 -0.014558991 -0.034128368 -0.08594863 -0.031315144 0.032794222 0.04207588
0.21384916 0.040206872 -0.40265244 -0.2796894 -0.21377897 -0.129065 -0.09111239 -0.15925941
0.0879508 0.04110688 0.15506884 -0.019123126 0.090018705 0.2726314 0.041742764 -0.14007592
-0.060530324 0.010632475 -0.1536917 -0.03538167 0.054356415 -0.22620228 -0.123091824 0.2817435
-0.0969872 -0.010127624 0.09148278 -0.2734711 -0.038788296 0.056403868 0.13244025 0.004403238
-0.24776079 0.026278894 -0.19708475 -0.035393726 -0.028742205 -0.054532476 -0.14586362 -0.105216615
-0.044031795 -0.06774468 0.0309295 0.006192575 -0.10508447 0.116477795 -0.017164716 -0.24781086
0.035878725 -0.043042343 -0.13173725 -0.10160764 -0.28053567 0.26391444 0.07682507 0.07877327
-0.024482453 -0.16036685 0.062707186 -0.10674365 0.009463887 0.025929332 0.049498394 -0.06512062
-0.13464373 -0.054789905 -0.008998877 -0.20401046 -0.04637245 -0.111952014 -0.19513024 -0.16036446
-0.039829403 -0.22214541 0.06461904 -0.30565974 0.06654393 -0.0363897 -0.04639271 -0.1665103
-0.123334445 0.0733797 -0.10055432 -0.0074664163 -0.06964884 -0.15194196 -0.038678326 -0.10579817
-0.25481018 -0.20276032 -0.014884906 -0.23080164 0.09451836 0.015877515 -0.24491623 -0.03888817
0.02271513 -0.3763151 -0.068587594 0.009462982 -0.017728446 -0.06679925 -0.17333356 0.124332085
-0.04123906 0.03966535 0.13430494 -0.1341147 0.011014907 0.043977782 -0.15382035 -0.10656388
-0.034246244 -0.050634824 -0.14750423 0.032933213 -0.20915627 -0.02634629 -0.060319882 -0.052766226
-0.114675544 0.052743677 -0.03985964 0.00034350675 0.02446003 0.10117393 0.16236192 -0.0021458007
0.1374185 -0.0382688 -0.121496275 -0.04747927 -0.05025252 -0.1738628 0.11308977 0.09582808
-0.22413836 0.021564486 0.013853454 -0.28226033 0.09037051 0.079909794 -0.21213831 -0.11689588
-0.11743538 -0.032132473 0.038321253 0.26335007 -0.028998487 0.23333754 0.20793243 0.09793733
-0.116785176 -0.12843509 0.112289555 -0.013697009 0.044420645 0.02083676 -0.1010219 -0.12610988
-0.08176389 -0.05047889 0.045124374 -0.18639208 0.17633146 0.08144984 -0.014972794 -0.0067818575

feature_extractor.conv.3.bias f4 [32]
00000000: d6c2 263c fcf6 e5bd 95f4 b3bc 5870 54bd
00000010: 5d65 13be 83d5 68bd dee3 e4bd db4d babc
00000020: c977 20be f31f 12bd 98b5 8cbd 7c69 dabc
00000030: 2cb8 1bbe 2430 7fbd 002f abbd 6c57 c4bd
00000040: edf5 44bd 9d4a b03c 90f6 06bd 6fd7 d7bc
00000050: e1f5 a1bd b47f 303d 7bd7 a7bc d708 80bd
00000060: f16d c6bc 859d 97bd 3976 a3bd ac7d dfbc
00000070: 5171 7ebd f60d aebd 3577 ddbd 37af debd
0.010178288 -0.11228749 -0.021967212 -0.05186495 -0.14394136 -0.056844246 -0.11176275 -0.022742203
-0.15670694 -0.035675 -0.06870574 -0.026661627 -0.15206975 -0.06230177 -0.08358574 -0.09586987
-0.048086096 0.021519953 -0.032949984 -0.026347844 -0.07908226 0.043090537 -0.020488491 -0.06251686
-0.024222346 -0.07403091 -0.079815336 -0.027281605 -0.062119786 -0.084987566 -0.108137526 -0.10873263

feature_extractor.fc.weight f4 [64, 800]
00000000: 0f52 2a3d 8e7b cb3d 3d73 d1bc dbd4 a43d
00000010: 7721 15bc ab93 f0bd 6616 973c 2e7a 18be
00000020: fb37 abbd 2a6e cdbd c6dc 96bd 7552 21bd
00000030: cc28 763c f88f 33bd c6a3 023d 85b3 8cbc
00000040: 52ec b83c 8fa2 0fbe a25b 0cbd 0055 3ebd
00000050: f96c 99bd 5d03 0c3e 326d 9c3d 3a93 9a3e
00000060: 0de5 833d eb65 7fbd fd5e 3fbd 601a 103e
00000070: 6ea2 57bd 1642 233d e58c d93c 9dfd ed3d
00000080: 5c10 c53d 4450 23bd 6562 94bd 4f3f 2dbd
00000090: 8f40 d93c ce2c 06be 2cc2 40bc e6a7 7bbe
000000a0: 373d 153d 8032 bf3d 82dd 463d 913a 183d
000000b0: 51de bcbc 2797 bcbc 3a98 d43c 911f 5f3e
000000c0: 05f7 433e 21d7 b4bd f93f bf3e 190e ae3e
000000d0: 1655 433e 4839 be3d e2a4 d7bd 56ee 61bd
000000e0: 8905 583c e257 1d3e 2f59 a43d ef2f 30bd
000000f0: 689f 87bd 1f5c eb3d 19aa 013e cb77 debd
00000100: dfad e5bc 1dc8 31bd b4d3 b53e a9ea ea3d
00000110: 92a9 3ebb 5a30 48bb c794 9bbd 8157 093f
00000120: c737 bd3e 73a8 8a3e 0012 24be a5a7 6f3c
00000130: 5d64 24be 9847 3d3e 15db 1e3e 9aa3 99bd
00000140: 01d1 4cbd 0695 53bd fe86 3c3d 2f93 e13b
00000150: a9be 9f3d 8d42 abbd 3d28 18bc 2f0f 0dbe
00000160: 7fab 393e da6d 793c 192d 8fbe 2beb e6bd
00000170: 8dfc fabd bade 9b3d 462c 0dbd 01b1 ad3d
00000180: 83d2 443c 04bf 4e3e 22c1 3d3d 8d0e 5f3d
00000190: 53cf 01be 4056 c2bc 7e3d 333e ebc8 01be
000001a0: 7523 19bd 5447 24bd 1081 063e b929 143e
000001b0: ee0d d9bc f1ba 53bc 7da6 243d 638e d43d
000001c0: 960a b5bc 807d de3a 87cd 89be d8f1 d2bc
000001d0: 95f1 5d3e 9442 1bbc c6c8 bd3c ecbe 9fbd
000001e0: 32f7 a6bd 7579 8cbd 6c14 803c 049d 843e
000001f0: 3624 993e 08d6 263e 5aff 7d3e 1560 a03d
00000200: 63ef 833d a33e 053e 14f6 4d3d 2ca6 8a3c
00000210: abeb 2cbe db99 463e ff65 373e 9376 e1bc
00000220: 79bf 13be 075b 10bc 42f4 4e3e 9bdf a33d
00000230: c79b e93d 7bfa 5e3b 5f13 9a3e 88e2 a43d
00000240: 6f4b d7bc 0414 8f3d 570e 9dbc 8fbf 3e3e
00000250: 6a56 213e aa53 463e 4651 cf3c 7d5b 1a3d
00000260: a09c 433e 1b8f 05be 6927 23bd 4623 3c3e
00000270: 4871 6d3e 5576 033e 1442 eb3d 81ec bfbd
00000280: 7a76 e1bd 1562 fbbc 59db df3c 07da 3a3e
00000290: 14a0 0a3d 7d9c c5bd cc92 c33d d9cc be3d
000002a0: 2282 f23d b8d7 27bd 7463 dd3d 8752 0c3e
000002b0: 9451 ffbc 3234 af3e 211f 0abe c512 14bd
000002c0: 11cb dd3c a242 033e 0658 c5bb e928 1bbd
000002d0: a84e 96bd 430d d7ba 8e5a 8bbd 71a1 d83d
000002e0: f612 ba3c d475 17bd be9a b9bb a4d6 43bd
000002f0: e862 8cbb b415 2cbd 3da1 73bd 5011 ed3c
00000300: ef15 ecbb fe27 8abd 19ce a43c bc9d f4bd
00000310: 20e7 cd3c 82c4 ccbd e12f 3e3d b044 093d
00000320: dbe9 653c a165 adbd b7b0 7bbb f799 713c
00000330: 1607 e53b 7557 b9bd 3d7b 3a3c 2623 343d
00000340: 2ae0 583c bf6b be3d 2b78 07bd b5e6 33bc
00000350: d5d1 17bd 270b 883d 8f92 c23c 6e70 4abd
00000360: 0323 0a3d 97f6 893d 687d 3f3d 64b2 f23c
00000370: 1d98 cbbd f479 18bc f537 ac3d d9bc 543d
00000380: e874 153d 3d3a 9fbd 795c 7b3c d8aa 393d
00000390: b3a8 873d 50fe c7bc 4cd4 a6bd 5a93 d83d
000003a0: e897 dabd 4895 7d3d 2642 d93c d3ca c93c
000003b0: 4e28 853d 383e 853e e171 3d3d 3d0a 843d
000003c0: 32c4 193d 32f7 f93d e9e9 163d cc38 433c
000003d0: c6b9 543d 19bc 49be 8586 e5bc 4b3d cdbd
000003e0: 14fb 663e 0286 a6bd a719 b2bc e355 3ebc
000003f0: 52f9 7a3d 97a0 8abd 728d ea3c 151e 343d
0.041582163 0.099356756 -0.025567645 0.080484115 -0.009102217 -0.117469154 0.018443298 -0.14890358
-0.08360287 -0.10030778 -0.07366328 -0.039385278 0.015024375 -0.04383847 0.031894468 -0.017175445
0.022573624 -0.14026855 -0.034267075 -0.04646778 -0.07491488 0.13673158 0.07638015 0.3019045
0.06440172 -0.062353056 -0.046721447 0.14072561 -0.05264514 0.039857946 0.026556442 0.116206385
0.09622261 -0.03987147 -0.0724533 -0.042296704 0.026520042 -0.13103029 -0.011765044 -0.24575767
0.036435332 0.09335804 0.04855109 0.03716523 -0.023055227 -0.023021294 0.025951494 0.21789385
0.19137199 -0.08830095 0.37353495 0.3399513 0.19075426 0.09288269 -0.10529496 -0.055158935
0.013184913 0.15365556 0.08024823 -0.043014463 -0.06622201 0.1149218 0.12662543 -0.108626924
-0.02803701 -0.043403734 0.3551308 0.11470539 -0.002909277 -0.0030546398 -0.075967364 0.53649145
0.36956617 0.27081642 -0.16022491 0.014627372 -0.1605391 0.18484342 0.1551326 -0.07501908
-0.05000401 -0.05165579 0.046027176 0.0068840007 0.078000374 -0.08362303 -0.009286937 -0.13775323
0.18131827 0.015223945 -0.27964094 -0.112753235 -0.122552015 0.07610841 -0.03446605 0.084810264
0.0120130805 0.20190054 0.046326764 0.054457236 -0.12676744 -0.023722768 0.17503926 -0.126743
-0.03738733 -0.040107086 0.13135171 0.14469041 -0.0264959 -0.012922988 0.040197838 0.103787206
-0.022099774 0.0016974658 -0.26914617 -0.025750086 0.21674187 -0.009476323 0.023167025 -0.07800087
-0.081526175 -0.068591036 0.015634738 0.25901043 0.2991044 0.16292584 0.2480444 0.07830826
0.06442144 0.13012175 0.050283507 0.01692494 -0.16886775 0.19394629 0.17910002 -0.02752236
-0.1442851 -0.008810765 0.20210364 0.08001634 0.11406665 0.003402381 0.30092904 0.0805102
-0.026281087 0.069862396 -0.019171877 0.18627761 0.1575562 0.19367853 0.025307309 0.037684906
0.19102716 -0.13042872 -0.039832506 0.18372831 0.23187745 0.12838109 0.11487213 -0.093712814
-0.11008926 -0.030686418 0.027326273 0.18247233 0.03384407 -0.096489884 0.09549484 0.09316415
0.11841227 -0.04097721 0.10809985 0.13703357 -0.03116683 0.3421951 -0.13488437 -0.036150713
0.027074369 0.12818387 -0.006022456 -0.03788081 -0.07339221 -0.001640715 -0.06804381 0.105776675
0.02271412 -0.036977604 -0.0056641987 -0.04781212 -0.0042842515 -0.042012885 -0.05947994 0.02893892
-0.007204763 -0.06745909 0.020117806 -0.11944148 0.025134623 -0.099984184 0.04643238 0.03351277
0.014032806 -0.0846665 -0.003840489 0.014746181 0.00698937 -0.09049884 0.011381921 0.043978833
0.013237039 0.09297895 -0.033073585 -0.010980298 -0.037065346 0.06642752 0.023751525 -0.049423628
0.033724796 0.067364864 0.046750456 0.029626079 -0.09941123 -0.00930642 0.084091105 0.05193791
0.036488444 -0.0777478 0.015341871 0.045328945 0.06623974 -0.024413258 -0.08145961 0.1057498
-0.10673505 0.061909944 0.0265208 0.024632847 0.06501828 0.26024032 0.04625118 0.06447265
0.037540622 0.12205352 0.036844168 0.011915397 0.05193498 -0.1970066 -0.028018245 -0.10021456
0.22556716 -0.08131029 -0.021740748 -0.011617157 0.061272927 -0.06768911 0.0286319 0.043974

feature_extractor.fc.bias f4 [64]
00000000: f5b8 34bd 0c5d eabc e3da 4a3d 7fab b0bc
00000010: c3bf e4bc 4857 63bd 095a aebc ccea 09bd
00000020: 99bc 27bd 5817 9dbd 4673 94bd 33aa 283d
00000030: f4bb ac3c 075b 073d 424d 9f3d 65a4 e93c
00000040: a982 863d e71b 56bc d372 893d ca5f 76bd
00000050: c686 55bd ea3c 20bc a566 8d3d 8eef 34bc
00000060: c800 6b3c f706 503d 1695 4b3d 3db9 b8bc
00000070: ff97 2a3d e45a 063d bed3 393d eba9 23bd
00000080: 3973 6ebc 2dc6 83bd a196 91bd 1204 60bc
00000090: df7a 763d 4cde ed3c 3372 723d 0aad eb3c
000000a0: d54f 78bd 3145 53bd a289 263d 55d8 cb3c
000000b0: d00d 8fbd 1ea5 a23d 605f 8f3c abd2 e5bc
000000c0: 19e7 9a3d 8e79 4d3d 53ed 763d 0c5e c13c
000000d0: 0a6c 9bbb 3f6a 643d a023 263d 1f0e 84bc
000000e0: 9d36 f33b f5fd 91bd 24c6 793d 1a0c 203d
000000f0: 698a 773d 5a0a 96bc e768 863d bf43 08bd
-0.0441217 -0.028608821 0.049525153 -0.02156615 -0.02792347 -0.05550316 -0.021283166 -0.033671185
-0.040951345 -0.07670468 -0.07248549 0.04117794 0.021085717 0.033045795 0.07778408 0.028520772
0.0656789 -0.013068176 0.06711354 -0.060149945 -0.052130483 -0.009780148 0.069043435 -0.011043442
0.014343448 0.050787892 0.049702726 -0.022549266 0.04164886 0.032801524 0.04536795 -0.03995697
-0.014553838 -0.064342834 -0.07108808 -0.013672845 0.060175773 0.029036663 0.05919094 0.028769035
-0.06062301 -0.051579658 0.0406586 0.024883429 -0.069850564 0.0794165 0.017501533 -0.028054556
0.0756361 0.05016475 0.060284924 0.023604415 -0.004743104 0.055765387 0.04056132 -0.016120015
0.007422282 -0.071285166 0.060979977 0.03907404 0.060434733 -0.018315483 0.06562977 -0.033267733

tree.node1.fc.weight f4 [1, 64]
00000000: 1252 d9be e19d cabe 0154 d93e 318e c9be
00000010: b6f8 e7be 6e2a 75be c547 fabe 871b a2be
00000020: de33 c6be 1597 babe 4319 d4be bf5d 2d3e
00000030: 14a6 eb3e dda3 cf3e 32be a43e 77b7 af3e
00000040: 9f7c a43e 084d 00bf 0a1c ed3e 0ed6 02bf
00000050: e4e6 2bbf ae33 b3be c9bf ac3e 76a6 e8be
00000060: 39dd ca3e 0c48 e73e 7daa d83e d18c 67be
00000070: 73db d13c 1430 1f3e 33b5 033f 40bb 1fbf
00000080: af46 b6be 7cc1 aebe 00cf cbbe 2035 ebbe
00000090: 4be4 c33e bac1 e43e 2a71 113f 59c7 a73e
000000a0: 7d20 bbbe ffaf 95be 8791 ca3e 0e80 a73e
000000b0: 63ce ddbe 1681 953e c89f ce3e 6c75 fcbe
000000c0: 657d b93e 3783 b93e dfbf ee3e c916 6e3e
000000d0: 2a2f b5be 5247 233e 473b cd3e eed9 b1be
000000e0: b314 793e cd6e b9be 700a e43e f98a 343e
000000f0: 31ed aa3e b0a8 12bf 48c5 043f d53e 11be
-0.42445427 -0.39573577 0.42446902 -0.39366296 -0.4530694 -0.23941967 -0.4888288 -0.31661627
-0.38711447 -0.3644339 -0.41425523 0.16930293 0.46025145 0.40554705 0.32176358 0.3431966
0.32126328 -0.5011754 0.46310455 -0.5110787 -0.67149186 -0.35000366 0.3374007 -0.454395
0.39621904 0.45172155 0.42317572 -0.22612311 0.025617337 0.15545684 0.51448363 -0.62395096
-0.35600802 -0.34131992 -0.39806366 -0.4593897 0.3826011 0.44679052 0.568133 0.32769278
-0.36548224 -0.29235837 0.39564154 0.32714885 -0.43321523 0.29200047 0.40356278 -0.49308336
0.3622848 0.3623292 0.4663076 0.2325088 -0.35387546 0.15945175 0.40084288 -0.3473658
0.24324302 -0.36217347 0.44539213 0.17631139 0.33384088 -0.57288647 0.5186353 -0.14184125

tree.node2.fc.weight f4 [1, 64]
00000000: a200 ee3e b82f 553e 15d5 d5be 09a7 b73e
00000010: 3ce8 833e 7442 af3e d8f4 b73e edc6 3f3e
00000020: c383 ed3e eb50 cb3e 0af3 673e 2f8f debe
00000030: 50dd cabe 9437 dabe 5d06 cbbe 0081 44be
00000040: 5e33 89be 1c65 d53e 9b2a c3be f1b0 7c3e
00000050: 21bd f93e b675 1b3e 268e 29be edda 1e3f
00000060: db57 28be 11bf 05bf 2e9c 87be 3d5b 503e
00000070: 17c7 8ebe 267d dcbe 40bf b6be 588c ca3e
00000080: 038c 203e db3b f53e 1555 cf3e 30b3 9f3e
00000090: 7a70 d2bd 68f3 31be 0ccc a2be e0e2 5cbe
000000a0: 1a2d 223e c6a1 b93e ad2f 5fbe 7d3e 72be
000000b0: d3c9 673e a9f9 68be eebe babe 1242 523e
000000c0: 5a77 0cbf 5a42 95be 28ae 9fbe bb22 26be
000000d0: 14b4 0b3f f4e4 d8be 1234 a2be c261 ce3e
000000e0: 3380 b6be c628 cb3e 285e b1be 917c afbe
000000f0: bd23 b3be 348f 193f 52d1 f3be 0a8e be3e
0.46484858 0.20818985 -0.4176413 0.35869625 0.25763118 0.34230387 0.35928988 0.18728228
0.4638959 0.39710173 0.22651306 -0.43468615 -0.39621973 -0.42620528 -0.39653292 -0.19189835
-0.26797003 0.41678703 -0.38118443 0.24676873 0.48777106 0.15181622 -0.16558132 0.62052804
-0.16439764 -0.5224467 -0.26486343 0.20347305 -0.27886268 -0.4306423 -0.35692787 0.395602
0.1567841 0.4789723 0.404946 0.31191397 -0.102753595 -0.17378008 -0.317963 -0.21570921
0.15837517 0.36256236 -0.2179553 -0.2365665 0.22635584 -0.22751488 -0.36473793 0.20533016
-0.54869616 -0.29152185 -0.31187558 -0.16224186 0.5457165 -0.42362177 -0.31680351 0.40308958
-0.35644683 0.39679545 -0.34642148 -0.34274724 -0.34988204 0.59984136 -0.47620636 0.37217742

tree.leaf1.probs f4 [2]
00000000: bb0f f23e 38f8 063f
0.47277626 0.527225

tree.leaf2.probs f4 [2]
00000000: 13cc 2840 2898 d1bf
2.6374557 -1.6374559

tree.leaf3.probs f4 [2]
00000000: 94e0 e0bf 4870 3040
-1.7568536 2.756853

tree.leaf4.probs f4 [2]
00000000: ec92 f43e 6eb6 053f
0.47768342 0.5223149
