Classifier/dndf_weights.pth (torch, 230342 bytes, 12 tensors)

feature_extractor.conv.0.weight f4 [16, 1, 3, 3]
00000000: 849b b03e ab08 613e 084f a5be 547b a73d
00000010: e8e2 63be 1cc5 153e a3b6 8b3e 320e 293e
00000020: c483 c53e 4fc2 ce3e b997 8ebd a295 563d
00000030: 9921 a3be 8b2f f3be 4282 ab3e 0f33 9fbc
00000040: 6f8f 2c3e 97b2 803e 45ac 12bd 3cb7 7c3e
00000050: 7da5 17be 01dd 45be a265 d0bd 60bd 2f3e
00000060: c5a8 e1be 63d9 39be 482a 8dbc 8a6e 80be
00000070: f443 0cbe 17ea 12be 6a2c bc3d 45a9 83be
00000080: 8451 58be fb30 d73e c69e 8abe b51b 2e3c
00000090: f5c3 553d 45a5 a03e b281 3c3e 7ce1 b23e
000000a0: 03b6 4b3e adca a7be 7e4b f63e 6693 d53e
000000b0: 092e 78bd d959 85be 53ad 8f3e dd99 d53d
000000c0: 7347 853e 6066 9dbe 9227 67be 7ed8 3fbe
000000d0: 5a04 23be 042f 763d 09e5 873e e3d1 6d3e
000000e0: a3e9 a93d 4f04 ba3e 759b 43bd 3f92 953e
000000f0: fe7a 323e b6b1 943e e75b 483e e33a aa3d
00000100: de57 013d bd43 8fbd 24c4 c1bd 1712 f8be
00000110: fefe 393e ca8b d23e df7e 6fbe 7a0e 953e
00000120: 1844 cebd 4a85 3c3d a7ab 1b3d 258e 813e
00000130: 1931 ae3e 64fe df3e 19ac d63c b929 d93e
00000140: 0062 f13e 9d31 5c3e 4b18 57bd 0e0b 4fbe
00000150: 5735 a6bd 21f5 9abd f365 dcbe 2085 25bb
00000160: 6731 0fbe 451c 533d 4d2c ff3e 8cff 253e
00000170: 621f 4bbe 405d 113e f753 093e ebac 713e
00000180: 70ca a3be 91d1 07bd 1516 a53a 3410 2dbe
00000190: 0277 0a3d 0630 063d 2387 ed3e bb92 9e3e
000001a0: 98af 363e ab48 d53e d3a9 d7be 412e 683e
000001b0: 0089 a33e f1f4 61bd 1c0f 9d3e 6aac 923e
000001c0: 4934 e6bd 354f bf3e 2514 6cbe b234 06bf
000001d0: d933 93be e92b 9abe 58b4 7e3d fbfc 5c3e
000001e0: e256 373e 6d58 c03e b6dd acbc 913c 32be
000001f0: 637a 32be ab90 13be ee81 ea3d 37f1 933e
00000200: f4fa 0a3f e777 b5be 0d28 f7be 6a50 d83e
00000210: 0fe9 99be f924 e1bc 615e b1bd 00bd afbd
00000220: 3abe 97be c6c0 7fbe 07e4 30bc 1d15 0e3e
00000230: f14d f2bd cd82 923e d472 10be eeb6 a13e
0.3449365 0.21975963 -0.3228686 0.0817782 -0.22254527 0.14625973 0.27287778 0.16509321
0.38577092 0.4038262 -0.069625326 0.052388795 -0.3186157 -0.4749721 0.33497816 -0.019433526
0.1685159 0.25136253 -0.03580882 0.24679273 -0.14809223 -0.19322588 -0.10175635 0.17162085
-0.44074073 -0.18149333 -0.017232075 -0.25084335 -0.13697797 -0.1434711 0.09188159 -0.2571508
-0.21124846 0.42029557 -0.2707426 0.010626723 0.052188832 0.3137609 0.1840885 0.34937656
0.1989365 -0.32771817 0.4810447 0.4171402 -0.060590778 -0.2604511 0.28061923 0.10429738
0.26031074 -0.30742168 -0.22573689 -0.18734929 -0.15919629 0.06010343 0.26541927 0.23224597
0.08296516 0.36331412 -0.047755677 0.2921314 0.1742973 0.29041833 0.19566308 0.08312013
0.031577937 -0.06995342 -0.09461239 -0.484513 0.18163678 0.41122276 -0.23388241 0.29112607
-0.100715816 0.04602555 0.038005497 0.2530376 0.34021834 0.43748772 0.02620511 0.42414644
0.4714508 0.21503301 -0.052513402 -0.20219061 -0.081156425 -0.07566286 -0.4304653 -0.002525635
-0.13983689 0.05154063 0.49838486 0.16210765 -0.1983619 0.14195728 0.13410936 0.23601119
-0.31990385 -0.033158842 0.0012595082 -0.16900712 0.0338049 0.032760642 0.46392164 0.3097132
0.17840421 0.41657004 -0.42121753 0.22673894 0.3194046 -0.055165235 0.3067559 0.28647166
-0.11240441 0.37365118 -0.2305456 -0.52424157 -0.28750494 -0.30111626 0.062183708 0.2158088
0.17904237 0.37567464 -0.021101814 -0.17405917 -0.174295 -0.14410655 0.11450563 0.2889497
0.54289174 -0.3544304 -0.48272744 0.4224885 -0.30060622 -0.02748345 -0.086605795 -0.08580971
-0.2963732 -0.24975881 -0.010796553 0.13875242 -0.118312724 0.28615418 -0.14106303 0.31584877

feature_extractor.conv.0.bias f4 [16]
00000000: 3f84 13be 7528 de3d be77 9ebd 6547 a0be
00000010: 7e5d c1bd b997 a4bd 9895 8cbe 34fb d13d
00000020: d74c f43d fe38 dfbe d559 45be 950b e8bd
00000030: 8020 1f3b 0b0f a93d fff0 42bd 0173 0b3e
-0.14405917 0.1084756 -0.07737683 -0.3130447 -0.0944166 -0.08036751 -0.2745788 0.10252991
0.119287185 -0.4359817 -0.1927255 -0.11330334 0.0024280846 0.08254822 -0.047593113 0.1361809

feature_extractor.conv.3.weight f4 [32, 16, 3, 3]
00000000: 81ba 2a3e 951e 0e3d 50c2 b63d 737e cc3c
00000010: 357d 183e 30d5 c83d 2abe 143e cb41 183e
00000020: 4173 813d 0c5e 16be 9647 11bd bfeb 36be
00000030: c87e 0bbe 6c7c 4dbd 4c9f c3bd 9989 d0bd
00000040: 84ff aabd 6a0f 0dbe 6254 80bd 3ecc 8a3c
00000050: 2e4b a5bc 48a8 cebd 3a50 86bb e7e7 79bb
00000060: e38e c53b f18d 51bd ecef 97bb 2740 5abb
00000070: 1ce8 233d aece ce3c ab3d fc3d b2a7 943d
00000080: 34d8 a83d b858 853d ac18 f53c 46f8 503d
00000090: 4fc6 f23c 5ff0 173d 6aa1 df3d 0632 ebbc
000000a0: d04a 823c b18a 443d aef2 ba3d 896e ca3a
000000b0: 191a 45bc 31ef 663c 350f 3c3d 1435 243d
000000c0: cb9c 05bb cb3e 683d 734d 49bd 2d47 8fbd
000000d0: b57b bbbd 9f6a e7bd 1ef1 0a3e 9095 8a3d
000000e0: 0379 183e 534d d03d b95e 233d 8e03 883d
000000f0: 0688 263e 527e 3c3e 9e21 0b3e be3a 6fbd
00000100: 7b12 92bd c530 2dbe 38a8 94bd 7c66 a2bd
00000110: b84d 0fbe 3972 2abe 7e18 1bbe 116c d6bd
00000120: 41b9 4ebd 997d 5a3d da2f 10bd 643b e63c
00000130: cd24 8e3c 60b4 9cbd ccb8 4cbd b9f5 6a3c
00000140: 6d2c 7abd bf38 1f3d 5fbf 793b 752c e13d
00000150: 3e51 ea3d af7f ca3d e7e9 bb3d 46d6 26bd
00000160: e48c c13c f100 623d 324c f53d 9dc7 003e
00000170: 90e0 3d3e cd1e 023e cfda d23c 1bfc 863d
00000180: 2025 56ba 32ce de3b 59c6 ad3d 50f7 95bd
00000190: 1432 af3c 9fc9 853d 0f30 95bc d819 3fbd
000001a0: 2688 01bb 7fbd 7fbd 7c4d 8dbd 4c87 b7bc
000001b0: f2c6 1fbd 197a 523d 4bd9 283c 93df 903c
000001c0: a960 24bc 80c6 d8bd ec7f 08bd 2741 4abd
000001d0: 2fd0 9b3c a74c 4fbe 0c14 40be 98eb 48be
000001e0: e0d1 1bbe bd5c 3fbe 130f 57be 2ee1 69be
000001f0: 2b3a 57be fe46 5abe 2c45 bd3d 67a7 de3d
00000200: 154b 5b3d ddb1 dbbc 409e 4fbd 1b4d 4dbd
00000210: bc05 b23c 64e3 49bc 1031 383d 5a7d fdbd
00000220: cacf 69bd 36b4 65bd fefe 18be fa81 e9bd
00000230: 58c8 08be 9775 01be 4b07 85bd b67f f6bd
00000240: 802c 8d3e 4eb9 c7bd 7469 5abe ded7 b3be
00000250: 288d e4be 0c50 97be 4819 6ebf 2dd7 90bd
00000260: 2711 0abd 4781 fdbd 397a d9bd 81ee d7bd
00000270: 394b cd3c 079b 963e b41b b33d 2623 5ebe
00000280: 8b7a 373e f1d9 f73c 3ae9 7d3e bd08 82bd
00000290: 2702 5dbd f0a1 31bd 8905 acbd fd13 c53d
000002a0: 43f7 16bd 29d5 763c 19a9 41be 9916 2ebd
000002b0: 439c 2cbd 71d5 17be 061c d2bd 2133 fbbd
000002c0: b9d4 88bc 475b c8bc 148f 08bf d7ae 1bbd
000002d0: 5177 233e 66d5 a3be a597 d73c 66ca dcbe
000002e0: 30cb fbbe d24a a3bd 936a a6be da88 4dbe
000002f0: 5ff9 2abe bde5 0cbc e94c b6bd 3686 95be
00000300: 31ff 383d 6731 b53d f820 273e a8f0 acbd
00000310: c3cc 35be 26ec 253d ec1a e33d fc6d febe
00000320: 0a2e 8fbd 55ed 2fbe 5a4d 92be e1ff b8bd
00000330: 497f 33bf 74aa cebe 904e 163c 2c6e 7d3d
00000340: 2a78 d03d 4404 9e3c af23 0f3e fbd4 03bc
00000350: d21d 453e 2c11 873e 8148 383d 446c db3d
00000360: 5a0d 2cbd af10 923c 0dc4 993c aaba a7bb
00000370: dd2e d53c bc75 e2bc 312c efbd c68f c4bd
00000380: 7fcb 89be 2849 68be ffac f5bd 0be5 7cbe
00000390: e0e2 99bc b050 e8bc 7b3b a6be 4b3c a63d
000003a0: 7157 00bf f9d6 66be 1c2f c7bd ef00 b3bd
000003b0: 954b a4be 2da5 cbbd 6e48 1a3e bad2 dabe
000003c0: 5869 5fbe 4c46 44be 95ec aa3e 398e ad3e
000003d0: b345 193e 181a a23e ba73 0e3e caef 9f3e
000003e0: 6252 f2bc 85fe a2be 63c5 d6bd 8090 07be
000003f0: d30f 4c3d 1ef0 debc ea3f 763e 6d7f 80bd
0.16672708 0.034697134 0.08923781 0.02496264 0.14891513 0.09806287 0.14525667 0.14868848
0.06320811 -0.14684314 -0.03546866 -0.17863367 -0.13622582 -0.050167486 -0.09551868 -0.10182495
-0.08349517 -0.13775411 -0.06266095 0.016943093 -0.02017745 -0.10090691 -0.004098919 -0.003813261
0.0060289963 -0.051160756 -0.004636755 -0.0033302398 0.04001628 0.025245037 0.1231645 0.07258548
0.082443625 0.065110624 0.029918991 0.051018022 0.029635577 0.03709447 0.10919459 -0.028710376
0.015904814 0.04798383 0.09128319 0.0015444319 -0.012030148 0.014095114 0.04591294 0.04008968
-0.0020387645 0.05670051 -0.049146127 -0.069959976 -0.091544546 -0.11299633 0.13568541 0.06766808
0.14889912 0.101709984 0.039885256 0.06641303 0.16262826 0.18407562 0.13587043 -0.05840563
-0.07132431 -0.16913135 -0.07258648 -0.079297036 -0.13994491 -0.16645135 -0.15146062 -0.10469831
-0.05046964 0.053342436 -0.035201885 0.028104492 0.017351532 -0.07651591 -0.049980924 0.014340811
-0.061077524 0.038872477 0.003810845 0.10994808 0.11441277 0.09887635 0.09175473 -0.04073169
0.023626752 0.05517668 0.11977424 0.12576146 0.18542695 0.12707062 0.025739102 0.06591054
-0.0008168984 0.0067994827 0.084850974 -0.07322562 0.021386184 0.06532597 -0.018211393 -0.046655506
-0.0019764989 -0.062436577 -0.068995446 -0.022403382 -0.03900809 0.051385973 0.010305713 0.017684733
-0.010032811 -0.10584736 -0.03332512 -0.04937854 0.019020168 -0.20244084 -0.18757647 -0.19621122
-0.1521678 -0.1868772 -0.21001844 -0.22839805 -0.21018283 -0.21316144 0.09241709 0.10871773
0.0535384 -0.02681821 -0.05068803 -0.05012236 0.02173125 -0.012322281 0.044968665 -0.123774245
-0.05708293 -0.056080066 -0.14941022 -0.11401744 -0.13357675 -0.12642513 -0.06495532 -0.12036078
0.27573013 -0.09752141 -0.2132929 -0.3512563 -0.44638944 -0.29553258 -0.93007326 -0.070722915
-0.033707764 -0.12378173 -0.10619015 -0.10543538 0.025060283 0.2941515 0.08745518 -0.21693096
0.1791784 0.03025529 0.24796 -0.06349323 -0.05395713 -0.043367326 -0.08399493 0.09622953
-0.0368569 0.01506547 -0.18912162 -0.04250202 -0.04214121 -0.14827515 -0.10259251 -0.122656114
-0.016702997 -0.024457587 -0.5334332 -0.038008537 0.15963484 -0.31998748 0.026317427 -0.43123168
-0.49178457 -0.07973255 -0.32503185 -0.20071736 -0.1669669 -0.008599696 -0.08901388 -0.29203957
0.045165244 0.088473134 0.1632117 -0.08444339 -0.17753892 0.04050841 0.11089119 -0.49693286
-0.06991203 -0.17180379 -0.2857464 -0.0903318 -0.70116097 -0.4036442 0.009174004 0.061872646
0.101791695 0.019289143 0.13978456 -0.008046384 0.19249657 0.2638029 0.04499102 0.107140094
-0.04200492 0.017830221 0.018770242 -0.0051186876 0.026023323 -0.02764403 -0.11678351 -0.09597735
-0.26913068 -0.22684157 -0.11995887 -0.24696748 -0.01878494 -0.028358787 -0.32467255 0.08116969
-0.50133425 -0.22542943 -0.09725782 -0.087404124 -0.32088915 -0.09943614 0.15066692 -0.42738897
-0.21817529 -0.19167441 0.33383623 0.3389757 0.14967994 0.31660533 0.13911334 0.31237632
-0.029580299 -0.31834808 -0.10486867 -0.13238716 0.04981978 -0.027214106 0.24047819 -0.062743045

feature_extractor.conv.3.bias f4 [32]
00000000: 91b5 eabd 3a2a 183e b7c6 c03c a411 de3c
00000010: dea9 4fbd d72d 8ebd c4f6 e7bd b459 1abd
00000020: aee5 21bd 0220 efbd 003c 45bd 255e 18bc
00000030: 9baa aabc 4838 173e b90c 04bc 0c60 83be
00000040: a4c5 203e 3315 c3bd ec1e e6ba f18d 6d3d
00000050: d13d 19be c7e9 88be fd86 a33a 351c 2c3d
00000060: e656 30be 800a 5ebe 7cf7 cdbd 081d 14be
00000070: 6005 5ebe b793 13be 8347 8ebe 1e4f 3fbd
-0.11460412 0.14859858 0.023532255 0.027108021 -0.050699107 -0.06942337 -0.11326364 -0.037683204
-0.03952568 -0.11676027 -0.048152924 -0.00929979 -0.020833304 0.14767563 -0.008059674 -0.25659215
0.15700394 -0.09525528 -0.0017556823 0.057996694 -0.14964987 -0.26740858 0.0012476143 0.042019088
-0.17220649 -0.21683693 -0.100569695 -0.144642 -0.21681738 -0.14411817 -0.27788934 -0.04670631

feature_extractor.fc.weight f4 [64, 800]
00000000: 7035 7cbc 8726 b53b 087f 2a3d dc23 993d
00000010: b3ed bd3b 0081 9ebc 3920 f03c 4d30 643d
00000020: 06d9 023d 055a 833b 4b59 553c eef8 703b
00000030: 9d94 aeba a2e1 1c3d 2fdb 4e3d a7f9 ec3d
00000040: 4f41 af3d 738f d53d 5c69 f73d 7274 483d
00000050: f390 c93d 0ba4 fa3c 3e59 253c 78cd 153d
00000060: ce7b 0b3e 5fa5 3f3e 0082 23be a2b2 ae3c
00000070: 6307 ecbd 19e4 103e faf3 063e 5903 71be
00000080: 4570 52bd ee47 7dbd 97ad 6a3e 0d12 98bd
00000090: 1940 e03c fc6b 1abd e7a4 e8bd f510 73bd
000000a0: 3a13 f43d 34e1 903b e34d 723e 2add 5abe
000000b0: 9431 073b 9080 78bb d3fa 9ebe 6eb2 a73d
000000c0: ac88 9d3e 1848 17bc 0985 edbd 343c 353d
000000d0: 8f77 5e3e ae03 17be df26 8bbd 5983 803e
000000e0: f20e a83d 22ad c03d 301c 0c3e 46f3 30be
000000f0: 249b fa3d 1909 4bbd 375b b83e fcdf c53d
00000100: a063 d1bc ec19 8abd 006d 7e3e 8bc3 3e3e
00000110: 5aa6 a7be 7daa 81be b7f8 a13c 66a3 b5be
00000120: cd33 d4bd a740 ccbd d1aa 64be d879 1e3c
00000130: ecf8 4d3c 828e 633a d986 d5bc a80b 06bd
00000140: 3c66 4ebd e5c8 5dbc 8a91 64bd bcc1 61bd
00000150: 1104 36bd 8e43 f33b c952 543d 813f efbc
00000160: 58a9 8dbc deea 233d e941 1d3d 7ae1 6a3c
00000170: b185 0d3d 7da5 f23b 163f 493b 2638 8a3d
00000180: d0a0 89bd 4c80 8bbc 94ea 93bc 1083 1d3c
00000190: b3bd 0fbc a67a f83c 90ab 3f3b b8d5 a03c
000001a0: d6f2 fdbc 0067 f83b e002 0bbd 8061 48bb
000001b0: 88e3 7e3c 77aa 15bc 30c9 fabc 60b8 683b
000001c0: 823e f73c 663a 903c c3f4 86bc 7446 e4bb
000001d0: 173d 10bd 94cc b43c 9792 e6bc e118 053d
000001e0: c4a2 b1bc f4a3 8ebb 0826 cfbc 5e94 c53c
000001f0: 6575 9f3b 53ce 9c3c fb49 b13c f139 0a3d
00000200: fbb7 acbc 259c 9b3c 9064 433c cd62 e83b
00000210: 40b2 123c 901d 233c 2e52 2bbc 4ecc 0ebc
00000220: 2c2a d63c 1cff 5bbc 00e3 183b 6905 1fbd
00000230: 5296 c93c 1403 163c 008b a13c c0bb 6d3b
00000240: de40 873c 65a0 06bd 3fae f3bc 8898 ac3b
00000250: f49f bbbc a873 ebbc f10a 353e 16bc 6b3d
00000260: 650a 963d cb02 3a3d 8b68 dabd ff21 043e
00000270: d7fd 05be b2c8 b83d aaf8 1f3e 4a49 1cbd
00000280: a277 20be 9c38 85bd 3e32 813e 08c9 0ebe
00000290: 7074 543d a2d6 46be c496 2abd 0771 bd3e
000002a0: c392 4c3d 1c98 8dbb e8f8 a8be cf41 903e
000002b0: d4e4 fbbd 8169 4fbb 1fc3 08be c6ad 88be
000002c0: af31 e5bd f42d 8dbd ddc7 1cbe cf9a f33d
000002d0: 2078 4bbe 63c1 edbd 5e61 2c3e eea9 063d
000002e0: b3bd 433d 14d4 1a3e 6d3b 21bd c924 c2be
000002f0: 8c77 26be bf98 853c 33c0 533d c5b5 ac3d
00000300: 8e1b 74be d7eb 003e 11a9 233e f452 243e
00000310: e6cf a43a caf2 c7be 9d3e fb3c e10f 433e
00000320: cbfc 823e b283 723c 542b d8bd 3433 5c3e
00000330: 1f60 75bd 7d10 323e d895 c53e 002f 27be
00000340: 24f3 14be 5b4c 19be 2dc0 18bd 7c29 453d
00000350: 9dfb 62be f253 c73d 5cb1 ed3d 35fa abbd
00000360: f6c8 c7bc 43e8 c13c 8978 003e 5f5e 3fbe
00000370: c334 353c 243e a4bd 95e0 d039 ada9 533c
00000380: e338 79bd 076c 253d ee99 973d b86a 323e
00000390: dd83 273d 8357 c23d c18a 43bd bc7b 913d
000003a0: 804e ab3c 69c9 bb3d f4ea debc bb3c a4bd
000003b0: c65e bebc 1e86 663d 4332 963d 67fd 87bd
000003c0: 72b6 a2be a9ba 0e3d 84ef 5f3e 5dc7 bbbd
000003d0: 935b 683c b5d1 cebd 901c a0bd 6deb 96bc
000003e0: 5fc1 ae3d 9bbd a1bd 5eee d3b9 bfd4 723d
000003f0: 548d 233c 063a ad3b b024 673d 3e04 cabc
-0.0153936 0.0055282745 0.041625053 0.07477543 0.005796158 -0.019348621 0.02931224 0.055710126
0.03194525 0.004008534 0.013021777 0.0036769467 -0.0013319437 0.038301118 0.050502 0.11571055
0.085573785 0.104277514 0.120806426 0.048939176 0.098421 0.0305958 0.010092078 0.036572903
0.13621446 0.18715428 -0.1596756 0.021325413 -0.115248464 0.14149512 0.13179007 -0.23536433
-0.0513766 -0.061836176 0.22917782 -0.07425318 0.027374314 -0.03770064 -0.113595776 -0.059342343
0.1191773 0.0044213776 0.23662524 -0.2137343 0.0020628916 -0.0037918426 -0.3105074 0.0818833
0.30768335 -0.009233497 -0.1159764 0.044246867 0.21725295 -0.14747497 -0.067945234 0.2510021
0.082059756 0.094080225 0.13682628 -0.17280301 0.12236622 -0.049569223 0.3600709 0.09661862
-0.0255602 -0.067432255 0.24846268 0.18629281 -0.32744104 -0.25325385 0.019771917 -0.35476226
-0.10361443 -0.09973269 -0.22330786 0.0096726045 0.012571555 0.0008680598 -0.026065277 -0.03272596
-0.050390467 -0.0135366665 -0.05580286 -0.0551164 -0.04443747 0.0074238246 0.051836763 -0.029205086
-0.017292663 0.04001891 0.038392935 0.014335984 0.034551326 0.0074049816 0.0030707768 0.06748991
-0.06720126 -0.01702895 -0.018056192 0.009613767 -0.008773255 0.03033192 0.0029246546 0.019633159
-0.030999582 0.007580638 -0.03393829 -0.0030575693 0.015557177 -0.00913488 -0.030613512 0.0035510287
0.030181173 0.017605972 -0.016474133 -0.0069664065 -0.03521451 0.022070207 -0.028146071 0.03249443
-0.021684058 -0.004353041 -0.02528669 0.024118599 0.0048662894 0.019141352 0.021641722 0.033746663
-0.021083822 0.018995354 0.011925831 0.007091856 0.008953631 0.009955779 -0.010456605 -0.008715702
0.026143156 -0.013427522 0.0023328662 -0.03882352 0.024607811 0.009156007 0.0197196 0.0036275238
0.016510423 -0.032867808 -0.029746173 0.0052672066 -0.02290342 -0.028741673 0.17679955 0.05755242
0.07326201 0.04541282 -0.10664471 0.12903593 -0.13085113 0.090226546 0.15622202 -0.03815583
-0.15670636 -0.06504938 0.25233644 -0.13943875 0.051868856 -0.19417813 -0.041647688 0.37000296
0.04994465 -0.0043211114 -0.330024 0.28175208 -0.12299505 -0.0031648579 -0.13355683 -0.2669508
-0.11191117 -0.068935305 -0.15310617 0.11894762 -0.19870043 -0.11609151 0.16834018 0.0328769
0.047788333 0.15119964 -0.039363313 -0.3791869 -0.16256541 0.016308187 0.051696967 0.08433107
-0.23838636 0.12589966 0.15982462 0.16047269 0.0012574166 -0.3905242 0.030669505 0.19049026
0.2558349 0.014801906 -0.10555139 0.21503907 -0.05990612 0.17389102 0.38590884 -0.16326523
-0.14545876 -0.14970534 -0.037292648 0.048135266 -0.22166295 0.09732808 0.11606094 -0.083973326
-0.024387818 0.023670321 0.1254598 -0.18688343 0.011059943 -0.08019665 0.00039840178 0.012918872
-0.060845267 0.040386226 0.07402407 0.17423522 0.04089724 0.09489348 -0.047739748 0.071036786
0.020911455 0.09169275 -0.027211644 -0.08019396 -0.02323855 0.056280248 0.073338054 -0.066401295
-0.3177982 0.03484598 0.21868712 -0.09168885 0.014181989 -0.10098592 -0.07817948 -0.018422807
0.08532976 -0.078974925 -0.00040422654 0.05928492 0.009982426 0.005286458 0.056431472 -0.024660226

feature_extractor.fc.bias f4 [64]
00000000: 6a24 b7bd a2de 873d b086 9abd 8d92 373d
00000010: 511a 50bd 9805 903d 8206 a7bd 36ef abbd
00000020: 50bd 83bd 7564 a93d 4127 0bbd 81d7 2fbd
00000030: 29c8 e73c 6393 56bd e80c bebd a8f0 a5bd
00000040: e007 a63d c365 a7bd a9a5 543d dfc9 583d
00000050: a091 093d c579 173d 78df 7d3d 9663 a83d
00000060: a7c1 15bd 121d 793d 0074 90bd 848d 693d
00000070: 769f a6bd 4c7b abbd 4ad9 0fbd be37 78bd
00000080: 0efe 5e3d 0377 b0bd de76 44bd bee2 603d
00000090: 63a5 02bd 47f4 9c3d c60e 7dbd 6cc7 a9bd
000000a0: f8b4 6e3d bc8d 84bd 15c8 5c3d 25df 473d
000000b0: e735 c9bc 6bb2 95bd 7a4e 963d 76bd 83bd
000000c0: 1b39 95bd 2e00 1b3d 5bb1 b7bd a7ad 8ebd
000000d0: 2908 903d 485c 8fbd 149e f1bc 0c44 20bd
000000e0: cd51 75bd 583d 203d 2d2a 943d 3f4e 1ebd
000000f0: b00f ff3c 7293 363d 1c62 7c3d 53f0 983d
-0.08942492 0.06634261 -0.07545221 0.044817496 -0.050806347 0.07032317 -0.08155538 -0.08395235
-0.06432593 0.08271114 -0.033972982 -0.04293013 0.028293686 -0.052386653 -0.092798054 -0.08102542
0.08106971 -0.081737064 0.0519158 0.052926894 0.033586144 0.036981363 0.061980695 0.082221195
-0.036561634 0.06081874 -0.07053375 0.057019725 -0.081358835 -0.083731264 -0.035119332 -0.060600035
0.054441504 -0.0861645 -0.047964923 0.05490374 -0.031896006 0.0766378 -0.061781667 -0.0828999
0.058278054 -0.06472346 0.05390175 0.04879679 -0.024561835 -0.07309421 0.07339187 -0.06432621
-0.07286283 0.03784197 -0.08969375 -0.06966715 0.070328064 -0.07000023 -0.029494323 -0.039127395
-0.059892464 0.039121002 0.07234607 -0.03864884 0.03113541 0.04457421 0.061617002 0.07467713

tree.node1.fc.weight f4 [1, 64]
00000000: 07b2 87be 3094 1d3f 1b1e 36bf 0df6 273f
00000010: e650 36bf 5881 1d3f 87ce 0ebf acb4 64bd
00000020: bada 05bf ddd6 a33e 3783 3abd 645f 503d
00000030: 9d45 603e 4824 15bf 87f9 09be 8dca b5be
00000040: 8ded f83d edc0 c2bd be59 de3e b9c7 163f
00000050: b55e fc3e d3b6 1d3f 6e4b 003f 100f c73e
00000060: 66d0 32bf 279b 203f 2f44 eebe cda5 a03e
00000070: a5b6 16bf 997c 65be 2d90 b7bc a35a 4bbf
00000080: 9c03 9f3d 4c10 523b db93 ebbe e376 123d
00000090: ce06 23bf 4d9f 233f c0fa b2ba 565f 3abf
000000a0: 11ad 093f 56a9 02bf 4f01 133f b218 d43e
000000b0: 7df4 09bf 3032 56bd 6863 113f 6a36 6cbe
000000c0: 7a97 7bbf 33d7 313f eb98 debe 09e3 80be
000000d0: 131c 073f ded9 27bf 8489 88bd 32e4 b5bd
000000e0: 1672 04be ef4f 063f fe37 ce3e 08c1 38be
000000f0: 2f7f 083f 368f 503f 2da6 033f fd0c 0d3f
-0.26503012 0.6155424 -0.7113969 0.6560982 -0.7121719 0.6152549 -0.55783886 -0.055836365
-0.52286875 0.31999865 -0.045535292 0.05087222 0.21901555 -0.58258486 -0.13474093 -0.35506096
0.12154684 -0.09509454 0.43427843 0.588985 0.49291006 0.6160709 0.50115097 0.3887868
-0.6984924 0.62736744 -0.46536395 0.31376496 -0.58872443 -0.22410811 -0.022407616 -0.79435176
0.0776436 0.003205317 -0.46011242 0.03575791 -0.6368226 0.6391495 -0.0013655052 -0.7280172
0.53779703 -0.51039636 0.5742387 0.4142509 -0.53888685 -0.052293956 0.56792307 -0.23067632
-0.9827801 0.6946899 -0.43476042 -0.25173214 0.5277721 -0.65566814 -0.06666854 -0.088814154
-0.12934145 0.5246572 0.40277094 -0.18042386 0.53319067 0.8146852 0.5142544 0.55097944

tree.node2.fc.weight f4 [1, 64]
00000000: ac34 20bf e300 053e 40aa 19be 7bca ea3d
00000010: 364f 0ebe 69fe 323e e001 9cbd 8f51 08bf
00000020: 5fb9 89bd 6b31 c03e 9a30 ccbe 440a a9be
00000030: 72b8 403f be24 ccbd 855e b4be 062c 21bf
00000040: cd4d 023f 2a71 0abf 64ab 7b3e 4f85 863c
00000050: 27fe 403f 35cc f83d 3b42 d0bc 060a 213e
00000060: 6cbc 42bd a56b 8b3e d9b8 5bbf 8529 5b3e
00000070: e15a 70be ec85 bbbe 4276 cbbe 6e7f 25be
00000080: c9e0 ec3e 7d79 dbbe b7de 213d d917 de3e
00000090: e518 d2bd 506a a83d 2fa7 cabe 9b0f cbbd
000000a0: b067 d23a 1ec2 cd3d 198b bd3c 0670 293e
000000b0: 3f68 99bd bc6e f1be 4e14 5a3a 36e7 1abf
000000c0: efc6 a6be 6d38 293e a526 8bbe 03b3 20bf
000000d0: 4328 b13c 7cb1 12be 32f4 e0be af44 f2be
000000e0: 0aee 0dbf ab14 13bd f4f5 7a3e e33c 1cbf
000000f0: 10c3 d8bc 93b7 8a3e aa8e 993c 17f2 0e3f
-0.6258037 0.1298862 -0.15006351 0.11464401 -0.13897404 0.17479862 -0.07617545 -0.5324945
-0.0672481 0.37537703 -0.3988083 -0.33015645 0.7528144 -0.099679455 -0.35228363 -0.629578
0.50899965 -0.54078925 0.24577099 0.016420988 0.75387806 0.121483244 -0.025422206 0.1572648
-0.047542974 0.27230564 -0.8582893 0.21402557 -0.23472168 -0.36625612 -0.3973866 -0.16161892
0.46265247 -0.42866126 0.039519038 0.4337757 -0.102586545 0.082234025 -0.39580676 -0.09915086
0.001605263 0.100467905 0.023137616 0.1654664 -0.074905865 -0.47154796 0.00083190657 -0.6050905
-0.3257365 0.16525431 -0.2717792 -0.6277315 0.021625644 -0.14325517 -0.43936306 -0.47318026
-0.55441344 -0.035908382 0.24507886 -0.61030406 -0.0264602 0.2709318 0.018744785 0.5583815

tree.leaf1.probs f4 [2]
00000000: 0878 5540 2f78 15c0
3.3354511 -2.3354604

tree.leaf2.probs f4 [2]
00000000: 747d 103f 1e05 df3e
0.56441426 0.43558592

tree.leaf3.probs f4 [2]
00000000: 70b5 ed3e 2925 093f
0.46427488 0.53572327

tree.leaf4.probs f4 [2]
00000000: 311e ecbf e90e 3640
-1.8446714 2.84466
